checkpoint.pth (torch_old, 28391 bytes, 6 tensors)

fc1.weight f4 [64, 37]
0.049094196 -0.05968692 0.049760573 0.08030628 0.123903 -0.17241289 -0.119981065 -0.04606477
-0.0603273 0.010548567 0.115229025 -0.08768574 -0.02742529 -0.0031889644 -0.32018965 -0.14283326
0.042777155 -0.03737038 0.013165122 0.08901752 0.24615024 -0.04221558 -0.26506516 -0.50173265
-1.0621568 -0.13099223 0.009555856 0.053300973 -0.038130015 -0.13576369 -0.18850505 0.12394088
0.08159086 0.20748521 0.22722659 0.0019891595 0.0073534357 0.050167236 -0.3306249 0.17448612
-0.28892338 -0.19137271 0.22350997 -0.15719531 -0.06269698 0.00906898 0.19224466 0.09443342
-0.08841208 -0.07119898 -0.15079382 -0.21099143 0.11259827 -0.037125543 -0.30267444 -0.23928936
0.002141558 0.08402774 -0.018287774 0.28061026 -0.15011463 -0.061591133 -0.105905086 -0.39507818
-0.11811644 -0.20384176 -0.09893344 -0.070265494 0.11894928 0.16280869 -0.10519827 -0.21683048
0.016843716 -0.053844724 0.022815024 0.04022809 0.0047955313 0.037301503 -0.13102403 -0.013952414
-0.020904845 0.009321671 -0.07778986 -0.20873632 0.13680804 -0.0069655147 0.033392064 0.06275295
0.06075506 0.1572986 -0.3215032 0.0010538421 -0.21225064 -0.7358538 -0.0048473543 -0.024175921
0.02202744 -0.063473955 0.0021877822 -0.26928464 -0.01746792 0.033386696 0.23415853 0.39599344
0.06590604 0.0938625 0.15283556 0.1859821 0.041145522 0.014316361 0.013541276 -0.027433893
-0.0458091 0.0069700093 -0.0144356005 0.07270317 -0.0784847 -0.00081364333 -0.17098567 0.045007024
0.243006 0.052806694 -0.0665967 -0.077976726 0.04642577 0.072481275 -0.009849416 -0.15358357
-0.13676906 -0.24037288 -0.2202876 -0.06435738 -0.17933276 -0.076146744 -0.10084559 0.07511996
0.11440798 -0.029477999 0.08981904 -0.021687806 -0.16428018 -0.054191925 0.07612223 -0.007786269
0.09851958 0.29816565 0.1583888 0.04782601 0.11379862 0.16087289 0.12213533 0.17921485
0.12061592 0.022314657 -0.043864407 0.016411863 -0.028974084 -0.06769644 0.025958547 0.114315294
0.1809861 0.09162506 0.11194966 0.09292578 0.0083589 -0.054631185 -0.13445541 -0.33244365
-0.05360413 0.09194687 -0.08664606 -0.011070415 -0.026756627 0.2713904 0.23730241 -0.120903544
-0.24761431 -0.4790951 -0.03241844 0.043321036 0.010492168 0.0038055356 -0.0116417045 -0.008085343
0.0035999157 -0.02123601 0.042148482 0.064458445 -0.2606357 -0.21441999 -0.46929112 0.12933591
0.2385911 -0.13684352 -0.42389363 -0.020871678 -0.02321093 0.08269557 -0.060107537 0.053015746
-0.06972722 0.27488318 0.14572296 -0.05255905 -0.81810296 -0.09289034 0.0070591983 0.015147383
-0.091634534 -0.016892442 -0.3345875 0.1476423 0.14645205 -0.12114639 -0.6610653 -0.15992723
-0.011804207 0.19571084 -0.022607742 -0.24303386 0.08912499 -0.006060189 -0.04342349 0.025391368
-0.0062490585 -0.041829422 0.09282614 0.09238159 0.16369294 0.16824688 -0.14533187 0.08688207
-0.16446817 -0.01610368 0.02599533 -0.008316032 0.21721753 -0.075570956 0.20038874 -0.062497336
0.013455976 0.1832979 0.30083045 -0.51405805 -0.20144324 -0.54200935 -0.89653873 -0.13808262
0.03993471 0.0884196 -0.028486717 0.083502956 -0.0410948 0.07884685 0.072290055 -0.09104147
00000000: ff16 493d 467a 74bd bed1 4b3d 9e77 a43d
00000010: dbc0 fd3d 018d 30be a2b8 f5bd 6aae 3cbd
00000020: c219 77bd e6d3 2c3c 32fd eb3d 9594 b3bd
00000030: 00ab e0bc f2fd 50bb e6ef a3be e242 12be
00000040: 1937 2f3d af11 19bd 86b2 573c d14e b63d
00000050: cf0e 7c3e 3eea 2cbd 9fb6 87be 8d71 00bf
00000060: c1f4 87bf d422 06be 2a90 1c3c 1f52 5a3d
00000070: 382e 1cbd a305 0bbe 7807 41be b7d4 fd3d
00000080: 1c19 a73d 0177 543e 16ae 683e 8f5c 023b
00000090: 17f5 f03b 297c 4d3d ab47 a9be 7dac 323e
000000a0: c4ed 93be 35f7 43be ccdf 643e cff7 20be
000000b0: 4667 80bd 0f96 143c c9db 443e 4f66 c13d
000000c0: 6511 b5bd c5d0 91bd b269 1abe 230e 58be
000000d0: ec99 e63d f410 18bd 25f8 9abe 4508 75be
000000e0: 6259 0c3b bc16 ac3d 3ed0 95bc 26ac 8f3e
000000f0: a6b7 19be fc46 7cbd c4e4 d8bd b047 cabe
00000100: 08e7 f1bd e5bb 50be 9e9d cabd 5be7 8fbd
00000110: ae9b f33d 52b7 263e 3172 d7bd cf08 5ebe
00000120: d5fb 893c 498c 5cbd 93e6 ba3c 36c6 243d
00000130: d523 9d3b 76c9 183d 2a2b 06be aa98 64bc
00000140: a340 abbc ecb9 183c 4a50 9fbd f9be 55be
00000150: 6817 0c3e f93e e4bb 1ec6 083d 9e84 803d
00000160: 4cda 783d e212 213e 119c a4be 1321 8a3a
00000170: 3b58 59be ea60 3cbf 8ed6 9ebb 950c c6bc
00000180: e472 b43c a2fe 81bd e560 0f3b addf 89be
00000190: e218 8fbc 7dc0 083d 41c7 6f3e a7bf ca3e
000001a0: bff9 863d fb3a c03d ed80 1c3e 1772 3e3e
000001b0: 3588 283d 2c8f 6a3c 3adc 5d3c 0bbd e0bc
000001c0: 53a2 3bbd ad64 e43b 4c83 6cbc 66e5 943d
000001d0: 96bc a0bd ae4a 55ba de16 2fbe 4959 383d
000001e0: 91d6 783e d54b 583d da63 88bd 43b2 9fbd
000001f0: f328 3e3d 1071 943d 725f 21bc 0345 1dbe
00000200: 300d 0cbe 4f24 76be 1393 61be cdcd 83bd
00000210: 02a3 37be d3f2 9bbd 2288 cebd 7ed8 993d
00000220: bb4e ea3d d87b f1bc 0bf3 b73d a0aa b1bc
00000230: 1039 28be 5af8 5dbd f9e5 9b3d f523 ffbb
00000240: a2c4 c93d 2ba9 983e ac30 223e 35e5 433d
00000250: 400f e93d ddbb 243e 1722 fa3d 1984 373e
00000260: 7b05 f73d 3acd b63c 2aab 33bd 2c72 863c
00000270: 0f5b edbc 6ea4 8abd 05a7 d43c 231e ea3d
00000280: 6c54 393e eba5 bb3d dd45 e53d df4f be3d
00000290: c5f3 083c f3c4 5fbd aeae 09be 0e36 aabe
000002a0: 0190 5bbd a44e bc3d 7d73 b1bd b060 35bc
000002b0: b730 dbbc aff3 8a3e 67ff 723e 479c f7bd
000002c0: 9b8e 7dbe f44b f5be 33c9 04bd 6671 313d
000002d0: 58e7 2b3c 4b66 793b d9bc 3ebc 6378 04bc
000002e0: 90ec 6b3b 24f7 adbc e3a3 2c3d ca02 843d
000002f0: 0b72 85be ea90 5bbe ed46 f0be a270 043e
00000300: 3a51 743e b520 0cbe 9608 d9be 15fb aabc
00000310: d924 bebc 4c5c a93d 5233 76bd 0a27 593d
00000320: 25cd 8ebd 7dbd 8c3e 6638 153e 2948 57bd
00000330: 326f 51bf 4a3d bebd d950 e73b bb2c 783c
00000340: e3aa bbbd 0562 8abc 0e4f abbe 8b2f 173e
00000350: 87f7 153e 991b f8bd 933b 29bf f7c3 23be
00000360: 6f66 41bc 6c68 483e df33 b9bc dedd 78be
00000370: 2a87 b63d 8d94 c6bb d4dc 31bd 8f01 d03c
00000380: e7c4 ccbb 5455 2bbd a21b be3d 8f32 bd3d
00000390: 1f9f 273e e948 2c3e e1d1 14be 3aef b13d
000003a0: 586a 28be ddeb 83bc 29f4 d43c f73f 08bc
000003b0: 466e 5e3e f2c4 9abd b532 4d3e 35fd 7fbd
000003c0: 7476 5c3c 72b2 3b3e 7306 9a3e 4f99 03bf
000003d0: 2347 4ebe 20c1 0abf 9083 65bf 8865 0dbe
000003e0: 9492 233d 5615 b53d fa5c e9bc 9903 ab3d
000003f0: 0553 28bd 757a a13d cf0c 943d f373 babd

fc1.bias f4 [64]
0.16971585 -0.092457116 -0.12594242 -0.05206427 -0.032340698 -0.046931885 -0.19780736 0.028815655
-0.06638839 -0.09656958 0.06872405 -0.14132185 -0.10854457 -0.059303213 0.03645536 0.035328772
0.13964427 -0.18859921 -0.020259842 -0.15597172 -0.012031735 -0.05609725 -0.029884553 0.04966557
-0.011572399 0.15983753 0.04493805 -0.02923719 -0.082139224 0.03907502 0.033158995 -0.0052567115
-0.108444296 0.0039792326 0.14736617 0.06002395 -0.2726413 -0.018958693 -0.08678198 -0.06175589
0.096735135 -0.015311441 -0.18425304 -0.1810932 -0.035284434 -0.032364022 -0.118096024 -0.14053205
0.08629536 -0.1058992 -0.028293615 0.013470488 0.1389739 -0.041486826 0.03561985 -0.07719753
-0.09245874 0.021148663 -0.16945857 0.0150732435 -0.23697723 -0.15630116 -0.12771517 -0.09880251
00000000: fec9 2d3e 285a bdbd 0df7 00be 5841 55bd
00000010: ae77 04bd a63b 40bd 038e 4abe cf0e ec3c
00000020: a3f6 87bd 46c6 c5bd 32bf 8c3d adb6 10be
00000030: 9e4c debd ede7 72bd 3752 153d e7b4 103d
00000040: e8fe 0e3e 2720 41be f8f7 a5bc 0db7 1fbe
00000050: c120 45bc 3bc6 65bd 73d0 f4bc 206e 4b3d
00000060: 299a 3dbc 73ac 233e f610 383d d582 efbc
00000070: 9c38 a8bd 210d 203d bad1 073d 7e40 acbb
00000080: 0b18 debd 3964 823b 28e7 163e acdb 753d
00000090: a497 8bbe 434f 9bbc c0ba b1bd bef3 7cbd
000000a0: 121d c63d d7dc 7abc d4ac 3cbe 7f70 39be
000000b0: 6986 10bd 2390 04bd 54dc f1bd a2e7 0fbe
000000c0: 9fbb b03d aee1 d8bd 03c8 e7bc 52b3 5c3c
000000d0: 2d4f 0e3e 17ee 29bd 1fe6 113d bd19 9ebd
000000e0: 025b bdbd f63f ad3c 8c86 2dbe c4f5 763c
000000f0: 29aa 72be 690d 20be c4c7 02be f858 cabd

fc2.weight f4 [64, 64]
-0.18791685 -0.108674735 -0.19552924 -0.1488463 -0.14940771 -0.4160016 -0.17629474 -0.34729576
0.057000715 -0.10343813 0.077418715 0.001092839 0.10595161 0.19370015 0.20784567 -0.18336393
0.123220116 0.0054640993 -0.14337516 -0.071952656 -0.08532473 0.37812883 -0.068566024 0.12817259
0.085366055 -0.20656301 0.14454642 -0.017517397 0.07258658 -0.106416464 0.021829735 -0.039188217
0.19812882 0.1231103 -0.013900136 -0.052553497 0.084859796 0.1962212 -0.059880458 0.0049339593
0.20821548 -0.19325797 0.20862277 -0.29039365 -0.09247063 0.16766924 -0.018208703 -0.20184365
-0.03420033 0.0797344 -0.04031751 0.014088317 -0.1559474 -0.07500711 0.09516426 -0.13037546
0.06918994 0.013220417 0.06307404 0.13603663 0.08256244 0.03354979 0.026233835 0.036143526
-0.028434323 0.08965176 -0.072310485 -0.049084865 0.03392583 -0.18477693 0.08367281 0.063805774
0.07307117 -0.06966168 0.0023272154 -0.22198515 -0.19863892 0.16257732 0.060818005 -0.08469985
0.15666153 0.007107226 0.0125086345 0.0069525456 -0.043373674 -0.09512649 -0.214605 -0.28545752
-0.107874036 -0.23437463 -0.015782122 -0.029211098 -0.0025692696 -0.25229022 0.10878914 0.06509006
0.15271123 -0.04047797 -0.057271004 0.25502202 -0.05337174 0.08126533 -0.045789015 0.20491463
-0.28127936 -0.13723244 0.06573296 0.14709044 -0.12767024 0.16486509 -0.17905478 0.049276285
0.3117116 0.11421109 0.032455143 -0.03530472 0.09384383 0.015707476 -0.053501513 -0.010854594
-0.093245365 0.19689186 0.19377767 -0.025090666 -0.07129557 0.0369198 -0.020582877 0.15968874
-0.10549944 0.16702881 -0.1613708 -0.061221246 -0.32822973 -0.026442429 -0.12839082 0.27022213
-0.20725808 -0.08019264 0.07084258 0.11286771 0.34070206 -0.08533584 -0.18311742 -0.04159088
0.02390617 0.16621716 -0.2296252 -0.099182054 0.10174805 0.32372248 0.04216894 0.06169815
0.017299233 0.014708335 -0.1118104 -0.3475909 -0.22919905 -0.13625921 -0.053570166 -0.008652853
0.18690223 0.16507469 -0.09412674 0.11638378 -0.0012148002 -0.09820272 0.1463193 -0.38498178
0.24141413 -0.26689708 0.1368453 -0.4447465 -0.0010488254 0.044201173 0.059908092 -0.10034463
0.050116673 0.20479152 -0.08439684 0.13463974 0.021810781 0.5016161 -0.009241088 -0.061371587
-0.12729189 -0.008183963 -0.09423581 -0.27911404 -0.22932406 0.063971534 -0.069661014 -0.2767988
-0.122294754 0.037594248 -0.067214005 0.12433219 0.021703621 -0.22676803 -0.105488546 -0.013484738
-0.020285442 -0.12126587 0.048287574 -0.0027730663 -0.11748615 -0.33241326 0.011104448 -0.54693764
0.0038586503 0.18753314 -0.03889158 0.11779897 0.11060554 -0.4920336 -0.024595002 -0.059263475
-0.053182505 -0.12320926 -0.18742646 0.016820861 0.054242115 -0.2209366 0.16134407 -0.048498288
-0.09104915 0.15849479 -0.14136371 -0.13662033 0.10626014 -0.13300262 -0.10136896 0.20432633
-0.17790404 0.004657672 -0.07238926 0.09445397 0.020958602 -0.09108812 0.20512749 -0.42910144
-0.49306133 -0.030856188 -0.14099865 -0.02724805 0.03313836 0.21595281 -0.36290205 0.038995314
-0.11695117 -0.24723089 0.103374794 -0.047739264 -0.14852643 0.0045314813 -0.06548446 0.19831371
00000000: 466d 40be dc90 debd d138 48be 2a6b 18be
00000010: 56fe 18be 29fe d4be 9c86 34be c0d0 b1be
00000020: 9579 693d 5fd7 d3bd b48d 9e3d 983d 8f3a
00000030: 28fd d83d 5559 463e 7fd5 543e c1c3 3bbe
00000040: d45a fc3d 300c b33b f0d0 12be ea5b 93bd
00000050: bbbe aebd 1a9a c13e 586c 8cbd ad3f 033e
00000060: 66d4 ae3d 4185 53be fa03 143e a580 8fbc
00000070: 46a8 943d e0f0 d9bd 46d4 b23c d383 20bd
00000080: 48e2 4a3e 4121 fc3d 65bd 63bc 5642 57bd
00000090: f9ca ad3d 36ee 483e 3645 75bd 0dad a13b
000000a0: 7036 553e 6be5 45be 35a1 553e 7aae 94be
000000b0: 3e61 bdbd 7cb1 2b3e 6b2a 95bc 1ab0 4ebe
000000c0: a515 0cbd ca4b a33d f923 25bd afd2 663c
000000d0: adb0 1fbe 549d 99bd 7be5 c23d 2581 05be
000000e0: 75b3 8d3d 739a 583c f62c 813d 304d 0b3e
000000f0: 7f16 a93d 816b 093d 57e8 d63c 3c0b 143d
00000100: 19ef e8bc 589b b73d 8517 94bd 360d 49bd
00000110: d0f5 0a3d 2a36 3dbe a65c ab3d 9aac 823d
00000120: 56a6 953d c8aa 8ebd 3284 183b 1350 63be
00000130: 0068 4bbe ab7a 263e 4d1c 793d 1d77 adbd
00000140: e16b 203e bce3 e83b 04f1 4c3c 2ed2 e33b
00000150: 98a8 31bd add1 c2bd 6ac1 5bbe 7d27 92be
00000160: 10ed dcbd e7ff 6fbe 8249 81bc 1d4c efbc
00000170: 3161 28bb 2f2c 81be d7cc de3d f04d 853d
00000180: 5560 1c3e 3acc 25bd 0095 6abd 3f92 823e
00000190: 539c 5abd 706e a63d 438d 3bbd 24d5 513e
000001a0: d903 90be a986 0cbe 019f 863d e09e 163e
000001b0: fdbb 02be 65d2 283e 235a 37be eed5 493d
000001c0: aa98 9f3e 81e7 e93d afef 043d af9b 10bd
000001d0: 3231 c03d f7ac 803c 6724 5bbd 78d7 31bc
000001e0: 6df7 bebd 059e 493e a76d 463e f18a cdbc
000001f0: 6903 92bd 3739 173d 6c9d a8bc 7285 233e
00000200: 1710 d8bd 9a09 2b3e 633e 25be 21c3 7abd
00000210: ba0d a8be cb9d d8bc e278 03be 8e5a 8a3e
00000220: 763b 54be 0a3c a4bd ea15 913d 3027 e73d
00000230: 8070 ae3e 8fc4 aebd 2283 3bbe 335b 2abd
00000240: dfd6 c33c d534 2a3e de22 6bbe f61f cbbd
00000250: 4861 d03d f4be a53e 57b9 2c3d 33b7 7c3d
00000260: 1fb7 8d3c 3afb 703c dafc e4bd 6ff7 b1be
00000270: 28b3 6abe 8987 0bbe 646c 5bbd b2c4 0dbc
00000280: 4c63 3f3e 5709 293e 85c5 c0bd 9f5a ee3d
00000290: ee39 9fba 821e c9bd bad4 153e 551c c5be
000002a0: 4435 773e bca6 88be 2d21 0c3e d0b5 e3be
000002b0: be78 89ba 4a0c 353d 3062 753d 7c81 cdbd
000002c0: 2447 4d3d deb4 513e 40d8 acbd 00df 093e
000002d0: 86ac b23c ea69 003f ef67 17bc c660 7bbd
000002e0: ce58 02be 0716 06bc b4fe c0bd 09e8 8ebe
000002f0: edd3 6abe 8203 833d 6faa 8ebd 93b8 8dbe
00000300: ac75 fabd 6dfc 193d 7fa7 89bd e0a1 fe3d
00000310: cbcb b13c e135 68be 610a d8bd 17ef 5cbc
00000320: a82d a6bc 3e5a f8bd 31c9 453d 55bc 35bb
00000330: 949c f0bd 1232 aabe 6eef 353c 1b04 0cbf
00000340: 69e1 7c3b b008 403e c74c 1fbd 9640 f13d
00000350: 2885 e23d d4eb fbbe 757b c9bc 42be 72bd
00000360: e6d5 59bd 2355 fcbd b9ec 3fbe e7cb 893c
00000370: fb2c 5e3d 343d 62be 6137 253e 24a6 46bd
00000380: fa77 babd 754c 223e a6c1 10be 33e6 0bbe
00000390: eb9e d93d d731 08be 889a cfbd ec3a 513e
000003a0: 7a2c 36be 629f 983b d240 94bd 1571 c13d
000003b0: 60b1 ab3c 698c babd f10c 523e 2fb3 dbbe
000003c0: 8972 fcbe 1ec6 fcbc f361 10be 4d37 dfbc
000003d0: 17bc 073d bc22 5d3e 4cce b9be 8db9 1f3d
000003e0: 1884 efbd 182a 7dbe 2ab6 d33d 3f8a 43bd
000003f0: 5017 18be d27c 943b b71c 86bd c012 4b3e

fc2.bias f4 [64]
0.0060986704 0.091089115 -0.18365364 0.058287192 0.018941592 0.07809627 -0.18611291 -0.043203674
-0.03870885 -0.051320363 -0.097059146 0.20778805 0.03737501 -0.10496643 -0.127923 -0.010278353
0.032168087 -0.022141172 -0.027901249 0.054202504 -0.09259003 0.038340554 0.38289276 -0.01813995
-0.017831411 -0.0657327 0.023412706 -0.04913807 0.015149986 -0.05734612 0.1148979 0.06409913
-0.20061637 0.18480256 0.22628064 0.07847465 -0.04711615 -0.16829306 0.1847506 -0.24674727
0.0536209 0.19606775 0.49902955 0.518552 0.16507688 -0.14464428 0.020976048 0.2993622
0.27935648 -0.14400409 0.2688404 0.01864444 -0.064229734 0.49082273 0.2535343 0.055999346
0.2915758 0.37914532 -0.039060097 -0.024380265 -0.049523883 0.066185854 -0.043084398 -0.05014912
00000000: 5bd7 c73b ee8c ba3d b30f 3cbe 8dbe 6e3d
00000010: 662b 9b3c f0f0 9f3d 6294 3ebe 56f6 30bd
00000020: 2c8d 1ebd 4d35 52bd f2c6 c6bd 64c6 543e
00000030: 8a16 193d a4f8 d6bd 3ffe 02be 8966 28bc
00000040: afc2 033d 6761 b5bc 2991 e4bc 7203 5e3d
00000050: d79f bdbd fc0a 1d3d 850a c43e 3c9a 94bc
00000060: 2e13 92bc de9e 86bd 01cc bf3c 0045 49bd
00000070: a637 783c c4e3 6abd 974f eb3d 6846 833d
00000080: 616e 4dbe e23c 3d3e 1db6 673e 51b7 a03d
00000090: ddfc 40bd 0455 2cbe 432f 3d3e 51ab 7cbe
000000a0: 97a1 5b3d fcc5 483e cd80 ff3e d3bf 043f
000000b0: ea09 293e a11d 14be f6d5 ab3c 0146 993e
000000c0: d007 8f3e cf75 13be 73a5 893e 3abc 983c
000000d0: e18a 83bd 1e4d fb3e 3fcf 813e 925f 653d
000000e0: 6c49 953e 561f c23e 7bfd 1fbd 1fb9 c7bc
000000f0: 8ed9 4abd 738c 873d 4479 30bd 2a69 4dbd

fc3.weight f4 [4, 64]
0.18505137 0.23332855 0.02513145 -0.376317 0.4815853 0.09043866 0.1001385 0.13585857
-0.1335364 0.1300149 -0.29602712 0.14879584 -0.019022888 -0.46043047 0.18902929 0.08602975
0.10817683 0.3355861 0.44475427 0.15274693 -0.52492654 0.1571615 0.25012195 0.07011635
0.35193804 0.07842352 -0.14239094 0.12120815 -0.11957447 0.030083112 0.047844253 0.16086735
-0.1702764 0.041580793 0.08054119 0.17821342 -0.095328666 -0.17812891 -0.12596455 -0.11415271
0.39903215 0.30685893 0.13282299 0.14208256 0.12103054 0.07335763 -0.27244157 0.16292292
0.19982433 0.042407855 0.16733848 -0.020027876 -0.07056559 0.1366943 0.21559013 0.24382803
0.26424503 0.19457176 0.12180555 0.27914855 -0.10199787 -0.5585734 -0.12705408 -0.002191737
0.106827594 0.056947418 0.1821844 -0.11474537 0.44418702 0.09447239 0.22338845 -0.026851337
-0.08456351 -0.008489005 -0.050379425 0.2528551 0.1008587 -0.088305056 -0.055742014 -0.041447476
0.21898802 0.14277901 0.5247819 0.11574114 0.0819898 0.16253474 0.13093397 -0.06862821
0.36195603 0.17529303 -0.057621665 0.18136582 -0.029083338 -0.17677194 0.069438204 -0.0102456445
-0.21869786 0.17322752 0.111707844 0.23341168 -0.33967093 -0.17853749 0.16842787 -0.06703367
0.46240732 0.30027056 0.27341035 0.12283818 -0.026141083 -0.14615002 -0.10733285 0.24398263
0.2454381 -0.047135867 0.20830326 -0.18066841 0.0932723 0.14638431 0.120291814 0.21237491
0.18021248 0.15805313 0.068268865 0.55799156 -0.11846133 0.085805364 -0.20888759 0.1807557
0.039337732 0.24779749 0.22806661 0.14786752 0.22073607 0.30712876 -0.11577699 0.3996954
0.014915529 0.31332052 -0.28991234 0.3679858 -0.21244691 -0.36788732 0.29557124 -0.17532936
0.043413054 0.05297695 0.25682816 0.2669302 -0.010170789 0.28601584 0.05180562 -0.28011757
0.24798383 0.29754788 0.0021130664 0.07110554 -0.2821413 -0.09914233 0.1141419 -0.17615521
0.09755599 0.14041983 0.30949816 0.23951854 -0.07435919 -0.16928542 0.1940347 -0.671753
0.53334403 0.2554973 0.17901361 0.26713184 0.21371126 -0.22728597 -0.28940985 -0.042042498
0.07035161 -0.32207945 0.25192803 -0.07002097 0.1395925 0.09246482 0.27137405 0.15711392
0.2649883 0.2254115 0.027346393 0.4554766 0.20676817 -0.24234286 -0.11059621 0.21031374
0.21661429 0.021703035 0.29553685 0.07309557 0.57466024 0.21819913 0.5877012 -0.032675877
-0.09356938 0.13799186 -0.2899026 0.15208398 0.09636025 -0.4511115 0.44769943 -0.6002146
0.06558603 -0.021036055 0.36728162 0.21701448 0.047763437 0.21327975 0.16904925 -0.12899832
0.13347021 0.2450253 0.219947 0.4213113 0.06516753 0.15077351 0.31918395 0.05737572
0.05307872 0.032014336 0.2764825 -0.07953269 -0.25437173 -0.26307827 0.19381835 0.096646875
0.21243948 0.24323624 0.2791039 0.25084805 0.01995399 -0.11574946 -0.27827236 0.22513084
0.011306263 0.1564181 0.29627067 -0.5265436 -0.09460936 0.13006015 0.2312775 0.12171877
0.21502794 0.1065387 0.28496495 -0.087001175 -0.18426408 0.25578356 -0.33605552 -0.2084285
00000000: 1b7e 3d3e aeed 6e3e 78e0 cd3c 9fac c0be
00000010: 5992 f63e e737 b93d 6a15 cd3d 821e 0b3e
00000020: c4bd 08be a022 053e de90 97be f05d 183e
00000030: e3d5 9bbc 8bbd ebbe e590 413e 5e30 b03d
00000040: d08b dd3d f1d1 ab3e d5b6 e33e b169 1c3e
00000050: 9661 06bf f2ee 203e fc0f 803e 2999 8f3d
00000060: 3931 b43e 839c a03d eece 11be fb3b f83d
00000070: 76e3 f4bd dc70 f63c 56f8 433d 69ba 243e
00000080: f05c 2ebe 9f50 2a3d c8f2 a43d 947d 363e
00000090: ad3b c3bd 6d67 36be dafc 00be e5c8 e9bd
000000a0: f14d cc3e 9d1c 9d3e c002 083e 177e 113e
000000b0: dcde f73d 863c 963d 767d 8bbe 44d5 263e
000000c0: c09e 4c3e dcb3 2d3d c75a 2b3e 8011 a4bc
000000d0: b184 90bd 97f9 0b3e a9c3 5c3e 0eae 793e
000000e0: 204b 873e d23d 473e 3075 f93d 8fec 8e3e
000000f0: 42e4 d0bd abfe 0ebf 771a 02be 3fa3 0fbb
00000100: 6dc8 da3d b241 693d 8c8e 3a3e 9fff eabd
00000110: 7b6c e33e be7a c13d f1bf 643e 56f7 dbbc
00000120: a22f adbd 7815 0bbc a85a 4ebd 3976 813e
00000130: 028f ce3d 48d9 b4bd bd51 64bd d4c4 29bd
00000140: 653e 603e a934 123e 1b58 063f b109 ed3d
00000150: 45ea a73d 826f 263e 8e13 063e f28c 8cbd
00000160: 4d52 b93e 0480 333e b204 6cbd f6b7 393e
00000170: 2e40 eebc b403 35be 9e35 8e3d 59dd 27bc
00000180: 55f2 5fbe 8e62 313e 15c7 e43d 7903 6f3e
00000190: 59e9 adbe 88d2 36be 5b78 2c3e f348 89bd
000001a0: a7c0 ec3e 10bd 993e 71fc 8b3e 9592 fb3d
000001b0: d325 d6bc 5aa8 15be 53d1 dbbd 95d6 793e
000001c0: 2054 7b3e 8a11 41bd 734d 553e 2401 39be
000001d0: 8c05 bf3d c5e5 153e 8e5b f63d cf78 593e
000001e0: 9f89 383e aed8 213e 8cd0 8b3d 89d8 0e3f
000001f0: db9b f2bd b9ba af3d a1e6 55be 0618 393e
00000200: 9a20 213d a0be 7d3e 4b8a 693e 956a 173e
00000210: a308 623e fb3f 9d3e 7d1c edbd e0a4 cc3e
00000220: 4360 743c 8c6b a03e 646f 94be a368 bc3e
00000230: af8b 59be ba5b bcbe 1d55 973e 8a89 33be
00000240: e3d1 313d 5cfe 583d fb7e 833e 13ab 883e
00000250: 62a3 26bc ab70 923e 2132 543d 926b 8fbe
00000260: 79ef 7d3e 3258 983e 5f7b 0a3b c89f 913d
00000270: d374 90be 220b cbbd 3ac3 e93d 0862 34be
00000280: 6fcb c73d 37ca 0f3e 8b76 9e3e 5944 753e
00000290: a249 98bd 2859 2dbe 08b1 463e 01f8 2bbf
000002a0: 3c89 083f 8bd0 823e 584f 373e 81c5 883e
000002b0: 20d7 5a3e a7bd 68be 872d 94be c134 2cbd
000002c0: 8114 903d 99e7 a4be b6fc 803e 2867 8fbd
000002d0: 56f1 0e3e 325e bd3d 8af1 8a3e 79e2 203e
000002e0: 8cac 873e 46d2 663e 8b05 e03c 3b34 e93e
000002f0: 09bb 533e ba28 78be 4480 e2bd 7c5c 573e
00000300: 23d0 5d3e 90ca b13c 9b50 973e 21b3 953d
00000310: ef1c 133f 986f 5f3e 9673 163f 24d7 05bd
00000320: 4ea1 bfbd bd4d 0d3e 1d6e 94be e7bb 1b3e
00000330: 8658 c53d 16f8 e6be dc38 e53e aaa7 19bf
00000340: f851 863d ce53 acbc 560c bc3e 0b39 5e3e
00000350: 98a3 433d 0266 5a3e 3f1b 2d3e 2318 04be
00000360: 6aac 083e eae7 7a3e c939 613e 1db6 d73e
00000370: 8e76 853d 5f64 1a3e 146c a33e ce02 6b3d
00000380: 1269 593d 7721 033d 1d8f 8d3e 09e2 a2bd
00000390: 033d 82be 32b2 86be 5178 463e ccee c53d
000003a0: bc89 593e ec12 793e b5e6 8e3e 286f 803e
000003b0: 8d76 a33c 0e0e edbd b779 8ebe b388 663e
000003c0: e73d 393c 112c 203e cab0 973e 90cb 06bf
000003d0: 8dc2 c1bd 7d2e 053e 02d4 6c3e b147 f93d
000003e0: 4930 5c3e f630 da3d ede6 913e ac2d b2bd
000003f0: b9af 3cbe 10f6 823e 780f acbe 486e 55be

fc3.bias f4 [4]
0.39632553 0.23612636 0.23220687 0.19995153
00000000: 2eeb ca3e 1ccb 713e a3c7 6d3e 18c0 4c3e
