checkpoint.pth (torch_old, 28391 bytes, 6 tensors)

fc1.weight f4 [64, 37]
00000000: 77f2 38be 5076 b6bc fefc 54bd 8b5d fb3d
00000010: bb5f 23bd df85 fdbd 256f f6bc 4366 5cbd
00000020: d6be 9e3d fcf4 9c3d 6bca 2dbb 29d0 debb
00000030: f20a aaba 3cf9 e83d 265b 6b3d c8da a6bd
00000040: a8a8 8cbc 39e1 983b fd34 d03d b54d 803c
00000050: 2df5 953e 4a77 cbbe 41ee ba3c 9c93 6fbe
00000060: 8b9b a6bf 0b9c 023e 326d 763d 94e0 833d
00000070: b598 073e 8ff8 473d e0d6 21be af81 91bd
00000080: dbec 99bd 1de8 0bbc a435 983d b05d de3c
00000090: 51fa abba 71a0 39be fa97 e13d eed8 943d
000000a0: 57fd 33bd 5a9a 1abd db77 44be faed 3c3d
000000b0: 1483 1e3e c013 83be 116e 253c cb95 de3a
000000c0: 6103 063e 3ef4 843e c7c4 5fbe 6c64 ebbd
000000d0: 6a4c 173e 7117 183d 181e 783e 6ae2 b7bb
000000e0: b3cc 33be 206c 9e3e 178e e4be 043b 07be
000000f0: 770a f3bd 815e 39bf bc75 2cbe 5bf0 613d
00000100: 78e5 b03d 3908 dfbd 17d4 bb3d 4a9c 5a3d
00000110: 67e6 003e cf13 b2bd 69a4 0ebf 3355 d3be
00000120: 0b52 14bc 5b1e 163c 62dd 46be 486c 933c
00000130: ee02 923d 20c2 4ebe 5e58 34be 2390 913d
00000140: 8ad6 f73d 46fa b83d ed22 38bf 4a19 a0bf
00000150: 9f85 6cbd 63fc eb3d 47cb 1abe e6bf e43b
00000160: e124 b3be b954 4cbd d5a4 c5bd 4bb5 293e
00000170: 4e19 a3be 5547 36bf d33c 613e 2ea9 e0bd
00000180: a8d4 d53c d0ed 19bd 02ce a0bd 976e a23d
00000190: a2c5 42be 0ba2 613e 3bec 84be 86e2 20bf
000001a0: e5ca 363e 36b1 83be 8a2c 97be 4b10 8fbe
000001b0: e31b 20bf a89a 743d acd0 cd3c 883c 633e
000001c0: 6e43 09be 3a43 0abe 6e3a 5ebd 6f25 15be
000001d0: 14d8 09be 77b9 9dbe 6115 f43d db06 fc3d
000001e0: f713 60be ec63 a2bc e13b 76be c1bd fabd
000001f0: fee7 1e3e 9ef1 95be a4dd fa3c 7f78 983d
00000200: a3de 6d3d 3018 46bd 86b8 e9bc 4f48 c8bc
00000210: 5109 c1bd 6eff 5b3e 2cd6 8fbe 2b3d ba3e
00000220: 8816 e8bc dff8 e4be 810a 50be 59af ef3d
00000230: 7674 b8be 35ea c6bd 2f69 82be 0d4f 133e
00000240: 4d3e 103e 21ba 91be 830d e53d b6b2 0bbd
00000250: b8b3 ebbd 3ef4 91bc 8cf0 2a3d 6f7d 213e
00000260: 38ea 813e 5f30 67be e932 b43d 97ff abbc
00000270: cd00 ce3d 8608 973e 21aa f3bc 0a34 de3c
00000280: 531e 1a3d 1af4 1c3d 1e88 c6bd b02d 213e
00000290: 228b dc3d 46bf 23bd a3f4 20bd 9f3b 25be
000002a0: ebd2 233d 73a6 49be 6c54 8a3c 39eb 3a3e
000002b0: 4e0d 843d 462e 9f3e 6dc0 fabd 89f9 13bd
000002c0: 5d25 33be 7785 d5be b004 04be cba4 8b3d
000002d0: e4bd 4abd e403 d23c b161 93bc 42ac dd3d
000002e0: 8b82 e7bc 80cb 6a3e 1a12 51be 345e a5bd
000002f0: abe1 f6bd 7d72 0cbf 7447 1f3d bbbb 9ebd
00000300: 8d94 95be dca2 cdbd a051 8b3e 9223 23be
00000310: 3d10 f23d 1931 bfbd e9b7 453d bfc4 46be
00000320: 1aa3 97bd 6750 8abd 78d6 acbe 3023 b2bc
00000330: 3b1b d43c a13a a43c 04c5 7dbd 1f67 75be
00000340: f663 2dbd 2809 8e3e 05a1 0abe df2c f2bd
00000350: 9306 e9bc 0fc8 1dbe 4d41 8ebc f688 1f3d
00000360: de4e 88be 6e63 adbd 9e06 5ebd 3ef2 563d
00000370: ff62 c73d b1b1 40bd cd7e 313d 34a9 843d
00000380: de9d 3b3e 539c 613e efc5 08be 4baf 853d
00000390: e1a7 103e 1e11 583d 74b0 1bbe 7681 6ebe
000003a0: dc38 613d 8c31 b6bd 9c44 363d 05e4 773e
000003b0: 49db 733d cca3 86bd 15d2 063d a9f9 383e
000003c0: 6a45 713d f151 033e 8b71 07bd 3c4b 803e
000003d0: 0f86 2cbb 4e18 1e3e be52 963d 4057 70bd
000003e0: ede7 833e 823d ba3d 4705 183e eedf 0a3e
000003f0: 69a2 0cbe bad3 053e 363d dc3d 44bd 373e
-0.18061243 -0.022273213 -0.051999085 0.12273701 -0.039886218 -0.123790495 -0.030082295 -0.053808462
0.07751243 0.076639146 -0.0026518356 -0.006799717 -0.0012973233 0.11375663 0.057459973 -0.08147198
-0.017170265 0.0046655205 0.10166357 0.015662054 0.29288617 -0.39739448 0.022818686 -0.23396152
-1.3016218 0.12754838 0.06016273 0.06439319 0.13241847 0.04882103 -0.15804625 -0.07104813
-0.0751588 -0.008539227 0.07432106 0.027144283 -0.0013120865 -0.1812761 0.11015315 0.072679386
-0.043942776 -0.037744857 -0.19186346 0.04612539 0.1547969 -0.25601006 0.010097043 0.0016981898
0.13087226 0.25967592 -0.21852408 -0.11493763 0.14775243 0.03713173 0.2423023 -0.0056117075
-0.17558555 0.30941868 -0.44639656 -0.13206106 -0.118672304 -0.72409827 -0.16841787 0.05516086
0.08637518 -0.1089024 0.09171312 0.053371705 0.12587892 -0.086951844 -0.5571962 -0.4127594
-0.009052764 0.009162511 -0.19420388 0.017995968 0.07129465 -0.2019124 -0.17611834 0.0710757
0.12101467 0.09032111 -0.7192829 -1.2507718 -0.05774462 0.11522748 -0.15116607 0.006980884
-0.34989074 -0.049885485 -0.0965058 0.16573064 -0.31855243 -0.71202594 0.21995859 -0.109697685
0.026102379 -0.03758031 -0.07851793 0.079312496 -0.19020703 0.2203447 -0.2596148 -0.6284565
0.17850836 -0.2572114 -0.29526168 -0.27942118 -0.6254255 0.059717804 0.025123917 0.2219106
-0.13404629 -0.13502207 -0.05425494 -0.14565061 -0.13461334 -0.3080556 0.1191814 0.12305995
-0.21882616 -0.019823037 -0.2404628 -0.12243224 0.15518185 -0.29285902 0.030623265 0.07444858
0.05807365 -0.04836291 -0.02853037 -0.024448542 -0.09425605 0.21484157 -0.28093088 0.36374792
-0.028331056 -0.44721124 -0.20316507 0.11703367 -0.36026353 -0.0971264 -0.25470874 0.14385624
0.14086266 -0.28462318 0.11184218 -0.03410598 -0.11508888 -0.017816659 0.04173331 0.15770505
0.25374007 -0.22577046 0.08798773 -0.020995898 0.100587465 0.2949869 -0.02974421 0.027124424
0.037626576 0.03831873 -0.09693931 0.15740085 0.10768725 -0.039977334 -0.039295804 -0.16136025
0.03999607 -0.19692402 0.016885959 0.18253793 0.0644785 0.3108999 -0.122437336 -0.036126647
-0.17494722 -0.41703388 -0.12892413 0.06818541 -0.0494975 0.02563662 -0.017990919 0.10823871
-0.02826049 0.22929192 -0.20417061 -0.080746084 -0.120547615 -0.54862195 0.038886502 -0.077506505
-0.29214898 -0.100408286 0.27210712 -0.15931538 0.118195035 -0.093355365 0.048271094 -0.1941099
-0.07404156 -0.06753617 -0.33757377 -0.021745294 0.02589189 0.020047488 -0.061955467 -0.23965119
-0.04233166 0.2774136 -0.13537987 -0.11824965 -0.028445518 -0.15408348 -0.017365122 0.038948976
-0.2662267 -0.0846623 -0.05420553 0.052477114 0.09735679 -0.04704446 0.043333817 0.064775854
0.1832194 0.22032289 -0.13356756 0.06527575 0.1412654 0.0527507 -0.1520403 -0.23291573
0.054985866 -0.08896169 0.044499025 0.24208076 0.0595353 -0.065742105 0.032915194 0.18063988
0.05890409 0.12824227 -0.033067267 0.250574 -0.0026325022 0.15438959 0.073400006 -0.058676958
0.25762883 0.09093763 0.14845763 0.13561985 -0.1373383 0.13069049 0.107538626 0.17943293

fc1.bias f4 [64]
00000000: 6188 f03d a8c7 8bbd e5ea ee3b 2aaa 50bd
00000010: ef3b 00be c147 76bd bd67 dcbd 3512 2a3e
00000020: 0131 26bd d4ff cfbd d1b4 c53c 96af 27bc
00000030: 7939 593d a375 4cbe 8b6b 5f3d a138 be3c
00000040: 6763 a83c e894 bcbd 1285 ac3d da87 23be
00000050: c659 14be c378 50bd 0225 483e a8bd 83bd
00000060: 5b17 8d3c 3209 973d 0ef7 ad3c 0e84 263e
00000070: 7550 0abd 123c 12bd 0ee4 3d3e 5d43 5b3e
00000080: 979e 34be 65a9 10be 93c5 eb3d 9ca3 573d
00000090: 70af e1bd 83ff 23ba 84ea 34be e6c3 703c
000000a0: a801 43bd b95f 333d 6904 34be 48da ffbd
000000b0: f778 0e3c 214f 11bd be6b 89bc c0cc c9bd
000000c0: 56eb 783d 4ebd 68bd 33a1 a4bc a6d4 313d
000000d0: a4c7 083e 3b8e b3bc c85d 13be 5d8e f7bd
000000e0: 30b6 f0bd f8ad 22bd 5010 87bd 759f 033e
000000f0: 8180 51be 606b 1abe d0b1 19be 51b4 02bd
0.11744762 -0.06825191 0.007291185 -0.05094353 -0.12522863 -0.060127024 -0.10761974 0.16608508
-0.040574078 -0.10156217 0.024134072 -0.010234734 0.053033326 -0.1996675 0.05454592 0.023220362
0.020555211 -0.09208089 0.08423819 -0.15969792 -0.14487371 -0.050896417 0.19545367 -0.064326584
0.01722305 0.07374801 0.021235969 0.16261312 -0.033768136 -0.03570182 0.18544027 0.21412416
-0.17638622 -0.14127119 0.11512294 0.052646264 -0.1101979 -0.0006256031 -0.17667586 0.014695143
-0.047609 0.04379246 -0.17579807 -0.12492806 0.008695832 -0.035475854 -0.016775008 -0.09853506
0.06077131 -0.05682116 -0.020096397 0.043415688 0.13357407 -0.021918407 -0.14391243 -0.120877005
-0.117534995 -0.03971669 -0.06594908 0.12853797 -0.20459177 -0.15080023 -0.15009236 -0.031910244

fc2.weight f4 [64, 64]
00000000: b0fc edbd ff01 0abf 6c7a 3b3e 81ac 0e3d
00000010: ca6e aebc df12 5e3e 5be5 40bd 01e9 f23c
00000020: 2659 013e e047 81be e72e 473e 3ba7 cbbd
00000030: 5288 973c f113 813c 4316 c53e bb37 d9bd
00000040: 339f 92bc 0b94 7bbb ffdd 2cbe 555f 053e
00000050: 8b4a c83b bf7c d7be 90ac 68be ea07 95bd
00000060: 3713 4a3d d492 e9bb 8753 e3bd 3d24 efbe
00000070: 92f2 af3d 1dba 1a3e 3159 073d 978c d4bc
00000080: fb76 c83d 8dd4 003e 61c4 dbbd 860f 1c3d
00000090: d979 20bd 5ec5 c5bd 2d7f ba3d a365 32be
000000a0: a07d dfbc 2d5b dabd 8b2d 143e 320e 49be
000000b0: a0c3 413d bea3 743d 252d 093e 3aa1 c1bd
000000c0: 8329 313e 36d1 8d3d 0863 2c3e 5bcb c0bd
000000d0: 2d21 313f 7752 cfbd 9925 3bbe 9772 b53a
000000e0: fa2e 53bd 5dbd 88be 3269 d13d 4b61 3c3d
000000f0: 8a1f b23b efa6 963d 02aa 5a3e 06c1 2cbd
00000100: 56d6 b93d 85b3 8ebc 7b13 4dbe e0b9 7d3e
00000110: 3ecb 623e e701 66bd 5941 17be 51db 093d
00000120: fc7e 9fbd c87a f0b8 be3a 24be 1ee6 9a3d
00000130: b935 17be 3415 83bd 2e47 02bf 8444 33be
00000140: 8bd9 1abe 1545 073e 2773 20be 977e 60be
00000150: bbd7 acbd 63cf 12bf b598 56be aa71 11bd
00000160: 0387 4a3e bf9c 233e 3884 383e b7cb 67be
00000170: d30c 95bb 1e9a e73b 2bad 373d 40dc aebb
00000180: b093 bdbc e5a7 cb3d a0b5 823d 967c 5abd
00000190: b30b 0e3e 1f7c edbe bc38 033e 42b8 2cbe
000001a0: be0c f33c cd8c 0dbe 1d0d 663d 0286 203e
000001b0: 0229 0dbe 7d70 973e c48a 48be f67c 873d
000001c0: 042d 3f3e bca9 b7bd 7322 143e e77f fb3d
000001d0: 4428 87be 78ee 803b 8203 e93d e5fb 32be
000001e0: 3147 a3bd d671 49be 267c 783d f603 91bd
000001f0: 1427 e1bd 8f3f 943e d17d 423d 12bf 3cbe
00000200: 8e3d 043e 0366 0b3e 15ad 573d a140 2f3e
00000210: 5f5d cf3c dbc8 49be 0ab3 12be 07aa 84bd
00000220: 403f 2e3c 3b6b da3d 90de 87bd 6db4 acbd
00000230: f425 213e ca71 493d 5169 a03e 49dd 31bd
00000240: c6c2 d43d 9d4e 27be f5be fdbd 996e e6bc
00000250: 2997 a4bd 6763 36bd f96e 47bd f873 b03d
00000260: a084 4d3e 7589 9e3d 8d18 b83d fe08 d73e
00000270: 7521 62be ee93 87bc 27ea c8bc 59dc d73d
00000280: fb3e 67bd 0f2d b0bd 10cc 843e e2f9 dfbd
00000290: d9df 753d 1aa2 ad3d 8464 c03d 201c 00be
000002a0: 9635 663d 75b9 3cbe 1181 d83c c294 1dbd
000002b0: 5ef7 fcbc 3514 fcbb 0419 193d 018e ef3a
000002c0: d9e6 2d3e 8826 063e 7e39 91bd cc2d 35bd
000002d0: 8a9e ed3e 5b36 873d e181 90bd 2b0d 50bd
000002e0: 404a f7bd ebe1 28bd b54b 223c a033 1bbd
000002f0: 2236 50be 2bb2 5c3d c1aa 8bbe 46c0 e539
00000300: dcd9 e93d 4ae0 0a3e 53e4 e83e ff86 5cbe
00000310: 680f 67be c5ea 083e 83f2 9bbd 0661 4abe
00000320: 6e13 c63d b0b1 af3c 2f86 60be 139b 48be
00000330: 2cd8 1fbe 5e9a 923e 0c2a c7bd da59 993e
00000340: b66d 143e 1825 abbe c13a 6a3e 04f8 c0bd
00000350: 83f6 6c3e de8b ba3d adc8 e7bd 73cf 29be
00000360: 8962 d3be d0ce 84be dad6 a13d fc3b 21bd
00000370: 4536 99be c745 9e3d fdb1 193e 14aa 923e
00000380: bcf1 ddbe afac b53d ebd7 2fbe 892b 8d3e
00000390: 5893 19bc 73fb 0d3d 3caa 313c bf2a 64be
000003a0: e447 54bd 185e 7b3e 362d 793d 813c cbbe
000003b0: ae7f 3dbe a86e 8abe 5cf1 803e 03fb 6dbe
000003c0: b723 91be afe3 3f3e 35fe cebe 8d57 7f3d
000003d0: 8353 e2bc 405b eb3b 0a84 93be 6b16 68be
000003e0: 34dd 40be 0505 9f3e 44e8 5c3e f1d4 2bbe
000003f0: b46d 75be cfc0 393e f36f aabe 177c 2b3e
-0.11620462 -0.53909296 0.18308419 0.03483248 -0.021293063 0.21686886 -0.04709373 0.02965212
0.12631664 -0.2525015 0.19451486 -0.09944006 0.01849762 0.01575658 0.38493547 -0.10606333
-0.017898178 -0.00383878 -0.1688156 0.13024648 0.006112402 -0.4208736 -0.22722077 -0.072769
0.04933473 -0.007128099 -0.11099916 -0.46707335 0.085911885 0.15110059 0.033044044 -0.025945945
0.09788319 0.12581082 -0.10730816 0.03810074 -0.039178703 -0.096567854 0.09106288 -0.17421584
-0.027281582 -0.10661922 0.14470498 -0.19634321 0.047305703 0.05972647 0.13396128 -0.0945458
0.17300992 0.069246694 0.16834652 -0.09413787 0.6919125 -0.10123151 -0.18276061 0.0013843355
-0.051558472 -0.26706973 0.102251425 0.045991223 0.0054358887 0.07356059 0.21353915 -0.04217627
0.090740845 -0.017419586 -0.20026962 0.24777937 0.22147843 -0.056154158 -0.14771022 0.033656422
-0.07787892 -0.000114669616 -0.16038033 0.075634226 -0.14766587 -0.064005286 -0.5088986 -0.17506605
-0.15122049 0.13209946 -0.15668927 -0.2192329 -0.08439585 -0.57347697 -0.2095669 -0.03550879
0.19778065 0.15977763 0.18019187 -0.22636305 -0.004548648 0.0070679327 0.04484288 -0.0053363144
-0.023141712 0.09944133 0.063822985 -0.05334147 0.1387165 -0.4638376 0.12814611 -0.16867164
0.029669162 -0.13823242 0.05616485 0.1567612 -0.13785174 0.2957801 -0.19584185 0.06615631
0.18669516 -0.08967921 0.14466266 0.12280255 -0.26397908 0.0039346777 0.11377622 -0.17478903
-0.07972563 -0.19672331 0.060665272 -0.070808336 -0.10993782 0.2895474 0.04748327 -0.18432263
0.12914106 0.13613133 0.0526553 0.17114498 0.025313077 -0.19705527 -0.1432611 -0.06477743
0.010635197 0.10664984 -0.06634247 -0.08432851 0.15737134 0.049180783 0.3133035 -0.043423925
0.103887126 -0.16338582 -0.12389938 -0.028128909 -0.08036644 -0.04452839 -0.048689816 0.08615869
0.20070124 0.077410616 0.08989058 0.41999048 -0.22083075 -0.01655003 -0.024525715 0.10540075
-0.056456547 -0.08602344 0.25936937 -0.10936333 0.06002793 0.08478184 0.09394172 -0.12510729
0.056203447 -0.18430121 0.026428731 -0.038471945 -0.030879673 -0.0076928386 0.037377372 0.0018276573
0.16982593 0.13100636 -0.07091044 -0.04423313 0.46410018 0.06602164 -0.070560224 -0.050793808
-0.12074709 -0.041231077 0.009905745 -0.03789103 -0.2033315 0.05388085 -0.27278712 0.0004382154
0.114185065 0.13562122 0.45486698 -0.21535872 -0.22564471 0.13370807 -0.07614615 -0.19763574
0.09671675 0.021447033 -0.21926187 -0.19590406 -0.15609807 0.28633398 -0.09724817 0.29951364
0.14494976 -0.33426738 0.22873975 -0.09422305 0.23140912 0.09108709 -0.11317573 -0.16583042
-0.41286114 -0.25939035 0.07902308 -0.039363846 -0.29924217 0.07728153 0.15009303 0.28645384
-0.4334849 0.088708274 -0.1717221 0.27572277 -0.009373508 0.03466363 0.01084381 -0.22281931
-0.051826373 0.24547613 0.060834132 -0.39694598 -0.18505737 -0.2703755 0.25184143 -0.23240285
-0.2834756 0.18739198 -0.4042832 0.062339354 -0.027627712 0.0071825087 -0.28811675 -0.22664802
-0.18834382 0.31058517 0.21572977 -0.1678045 -0.2396763 0.18139957 -0.33288535 0.16746555

fc2.bias f4 [64]
00000000: ebab e4bd 8976 16bd 3931 16be b65a 06bd
00000010: 6e63 713c bbcc e7bd 974e e7bd d9e8 ff3d
00000020: e66b 8d3e 8f4f d33e 5ef4 b0bb 1885 c13e
00000030: b914 9d3e a0c2 973e 6605 29bc 33f2 4e3d
00000040: a785 ba3d c95a 053c 16a1 1cbe 6416 6d3e
00000050: f5bd aabc 114f 06be 1e6d aa3d a86c b8bd
00000060: 92d6 3d3e 3647 0fbe 9af8 83bc bf6f 90bd
00000070: 25d7 83bd 1e7f 6a3d e2ed aa3d 3d8d ec3c
00000080: df62 32be b156 f3bd a246 523d 7eae 1bbd
00000090: 6510 1abd 9d3a f0bd 4668 203e db28 00be
000000a0: d075 d43d b9aa 9bbd 4726 c93d af2e cb3e
000000b0: 4a28 323e 4d1f aa3d dd72 ea3d 0d95 2a3e
000000c0: 7098 70bc 6987 86bd a574 eb3d 9dd6 083d
000000d0: 7dcd 94bd c740 d73d c87b 863e 331e a53e
000000e0: 4f31 30bd 7962 843d ecce 783d a2f7 3abd
000000f0: d552 6fbd 98cf 3f3e 6555 0c3d 11b4 2dbd
-0.11165603 -0.036734138 -0.14667214 -0.032801352 0.014733179 -0.11318346 -0.11294287 0.12495584
0.27621382 0.41271636 -0.0054002246 0.37796855 0.30679873 0.29640675 -0.0103162285 0.050523948
0.091075234 0.008139321 -0.15295824 0.23153073 -0.020842532 -0.13116099 0.08321594 -0.090050995
0.18538883 -0.13992009 -0.016109753 -0.07052564 -0.0643752 0.057250135 0.08346154 0.028875941
-0.17420529 -0.118817694 0.051336892 -0.038008206 -0.03761329 -0.117299296 0.15664777 -0.12515585
0.103740335 -0.07600922 0.09821754 0.39684054 0.17398182 0.083067514 0.1144769 0.16658421
-0.014684781 -0.06568796 0.114968576 0.033407796 -0.07265756 0.10510402 0.26266313 0.32249603
-0.043015774 0.06464095 0.06074421 -0.045646317 -0.058428604 0.18731534 0.034261126 -0.042408053

fc3.weight f4 [4, 64]
00000000: 9d0d 5f3e d9c6 95be 3856 35be ed2e c7be
00000010: 2e64 22be 8114 57be 949d a1bd 2ab8 e13d
00000020: 6643 acbc c64a 2d3e d14a 86bd 3ac8 3e3e
00000030: 1d2d 083e c53d 1a3e 3945 693e bb93 a23d
00000040: a455 943e 4f8a 84bd eb3a 09bc 46e5 c33e
00000050: e088 db3c a19d bcbe 4b61 ad3d 018f a5be
00000060: 66f3 843d d840 a7bd 0826 113f d3a0 c2bd
00000070: 97a7 abbd 1e8a a23e 2aa5 b63e e74d 0a3e
00000080: 0d5a 0cbe b287 e5bd e955 113e 6d03 2f3e
00000090: 64e5 26bd 1ad1 41be c714 8b3e 78e2 a9be
000000a0: 0dce b63e ff46 78be d938 0b3e d308 033e
000000b0: 3680 1a3e e43d cf3d 40a7 a03e ec81 3a3d
000000c0: ad61 8e3e f15a 313e 9c81 2e3e cfd9 153e
000000d0: e191 6cbd 6a93 9a3c ef60 493e d316 233e
000000e0: 659b 76be 0cee 6e3e f41f edbc 0026 62be
000000f0: 29e9 e33d ccb3 8e3e 55e1 a8bd d40e d43d
00000100: 2b78 123e ef61 2fbe 9b52 67be ffaf a53d
00000110: d11f 07be 769c 82be 48fd 6e3e 1752 7d3c
00000120: 18c8 b83d 0727 493e 1dbe 423d 06b8 1b3e
00000130: f7dd d53d 8101 253e 5980 6d3e bf3a a93e
00000140: ad18 883e 3056 f73c 202c 14bd 710d ac3e
00000150: 61dd ff3d 20b2 7bbe f1a4 9e3c 6652 37be
00000160: 8d95 ec3d d426 4dbc 561a ef3e 1f5c 5cbe
00000170: e9e1 a6bd 187f 983e 5bf0 a43e 2d4c 4f3d
00000180: e97b 343b ae8f 4bbe bb3c 503e e51d ba3e
00000190: e123 7d3d d280 e7bd e7e1 653e 3ddd a1bd
000001a0: b023 8e3e dbef aabe bd85 9b3e 815e 0d3e
000001b0: 3cbc 5d3d a7dc 323e f793 bf3d 57ee 933d
000001c0: 1bb4 4b3e 6527 4f3e d25f 1b3e a403 bf3d
000001d0: 335d 56bd 8e00 913e 7249 4c3e b500 5c3e
000001e0: cf3a 62be 6997 f23e 9e39 863d ab86 323e
000001f0: a633 79ba 6c29 6a3e 69f1 003e 097b 98bb
00000200: 951b 173f 8594 58be e4ff aabe 5884 b6be
00000210: 5e29 febd f9d5 8ebe 9474 173f fc37 273e
00000220: e29a 863e 4093 153e d0a4 19be 740e bf3d
00000230: 3c66 223e 41c4 3f3e e941 6dbe 9de3 2cbd
00000240: a9b0 a63e d9d7 debe 2689 98bd 0128 253e
00000250: 1779 9c3e b6b9 b0be a208 893e 60ea f43c
00000260: 153c ee3d d3eb 3a3e fb6d 0c3f 0a0d 4ebd
00000270: 4a77 fe3d edf0 843e cde1 ab3e 3c97 a9be
00000280: fe92 60be 252b 18be 414b 6f3e a581 f03d
00000290: 9c6b 94be 51aa 3ebe 7016 3c3e 36f4 95be
000002a0: 6eb8 103a ae9c 05be 966e c1be d0e1 343e
000002b0: 95ac d43d 7f58 333e e735 af3c 9cec 443e
000002c0: b7b8 113e 5ac2 a13e 14c2 f23c e43f 723e
000002d0: 8ff1 27bf e836 6abe 62af 253e 0586 2d3e
000002e0: bff4 3dbd 16c8 6a3e 138e 2d3e 3a18 60be
000002f0: 0ade 2c3e e545 b23d 678d 143e 7242 f23c
00000300: b4cf debd 861f 7dbe eaea 0ebe 1eef 8bbd
00000310: 7154 a9be f36b 26be 77d1 603e 8796 0f3d
00000320: f8cc ef3d 504e 283e ac1d 083e c267 553e
00000330: 5d6e b83d 41d9 793e d6d8 d4bd 1653 2e3f
00000340: 2d4b c13d 58c9 943e 4f15 10bd 8fe3 833e
00000350: 94f3 913d ec00 36be 001a e9be 4918 4dbc
00000360: bcc4 413e e766 f63d ea5d a43e 5636 d4be
00000370: b3a5 c5be 9768 093f b9cb 1f3f 2198 5c3e
00000380: c68d e0be 271c c3bd 0208 0a3e c7ab df3e
00000390: b473 3b3d 783a 543e 7420 093e b38f 8ebe
000003a0: 82e6 2d3e 235b 97be eee2 22be 6b5d 363e
000003b0: 6cfd 2e3e d7a9 48bc 65e9 cc3e e461 a33d
000003c0: da28 bc3e 59d0 a83e 117d 2b3e f798 0fbd
000003d0: 7a53 a53e 00d6 853e ab34 e23d a394 b13d
000003e0: 93d4 d6be 31a6 7cbe 208f 2b3e cf33 7bbe
000003f0: 6d26 cebd 9dd9 123e 621b 0cbe ebc9 77bb
0.21782537 -0.2925327 -0.17708671 -0.3890299 -0.15858528 -0.21003915 -0.07891384 0.11021455
-0.021028232 0.16923055 -0.06557239 0.18631068 0.1329846 0.15062626 0.22780313 0.079383336
0.2897159 -0.06471693 -0.008375864 0.3826086 0.026798666 -0.3683901 0.08465823 -0.32335666
0.06491737 -0.08166665 0.56698656 -0.09503331 -0.083815746 0.31746 0.35672885 0.1350628
-0.13706227 -0.112075225 0.14192928 0.1709115 -0.040746108 -0.18927422 0.2716429 -0.33180594
0.3570408 -0.24245833 0.13595904 0.12796335 0.15087971 0.101192266 0.31377602 0.04553406
0.27808896 0.17319848 0.1704163 0.14633869 -0.05775631 0.01886912 0.19665883 0.15926675
-0.24082716 0.23332995 -0.0289459 -0.22084808 0.11128456 0.2787155 -0.08246104 0.10354391
0.14303653 -0.17127202 -0.22590105 0.08090209 -0.13195731 -0.25509995 0.23338807 0.015461466
0.0902254 0.19643794 0.047544587 0.15206918 0.10442727 0.16113855 0.23193492 0.33052632
0.26581326 0.030192465 -0.036174893 0.33604005 0.124933966 -0.24579668 0.01936576 -0.17902526
0.11551962 -0.012521464 0.4669978 -0.21519516 -0.08148558 0.29784465 0.32214627 0.050609756
0.0027539677 -0.19879028 0.20335667 0.36350933 0.061801795 -0.113038674 0.22449456 -0.07903526
0.27761602 -0.3338612 0.30375472 0.13805582 0.054134592 0.17466985 0.09354394 0.07223194
0.19892924 0.20229872 0.15173271 0.09326866 -0.052334975 0.28320736 0.19949892 0.21484645
-0.22092746 0.47381142 0.06553958 0.17434184 -0.00095062924 0.22867364 0.1259209 -0.004653339
0.5902646 -0.21150406 -0.33398354 -0.35647845 -0.12410234 -0.27897623 0.5916226 0.1632995
0.2629004 0.14606953 -0.15004277 0.093289286 0.15859312 0.18727209 -0.23169674 -0.042209256
0.32556656 -0.43524054 -0.07448034 0.16128542 0.30561134 -0.34516686 0.267644 0.029896915
0.116325535 0.18254022 0.54855317 -0.050305404 0.12425096 0.25965062 0.3357071 -0.33123195
-0.21931073 -0.14860208 0.23368551 0.11743478 -0.2898835 -0.18619658 0.18367934 -0.2928788
0.0005520646 -0.1304805 -0.37779683 0.17664266 0.1038448 0.17514227 0.021388007 0.19230884
0.1423062 0.3159359 0.02963356 0.23657185 -0.65602964 -0.22872508 0.16180184 0.16945656
-0.046375986 0.22927889 0.16948728 -0.21884242 0.16881576 0.087047376 0.14507066 0.0295727
-0.1087946 -0.24719056 -0.139568 -0.06832717 -0.33072236 -0.16252117 0.21954904 0.035055663
0.117090166 0.16436124 0.13292569 0.20840362 0.09005425 0.24399282 -0.10392921 0.6809553
0.09438167 0.29059863 -0.03517657 0.2575955 0.07126537 -0.17773789 -0.4552765 -0.012517997
0.18922704 0.12031346 0.321029 -0.41447705 -0.3860298 0.53675216 0.6242023 0.21542408
-0.43858165 -0.09526854 0.13479617 0.43685743 0.04576464 0.20725429 0.13391286 -0.2784401
0.16982463 -0.2956172 -0.1590688 0.17809074 0.1708886 -0.012247524 0.40021816 0.079776555
0.36749917 0.32971457 0.16746928 -0.035057988 0.3229025 0.26139832 0.11045202 0.08670928
-0.41959056 -0.24672772 0.16753817 -0.24531482 -0.10065923 0.14340825 -0.1368232 -0.0037809561

fc3.bias f4 [4]
00000000: 0cdf 943e 053b 1d3e c033 3d3e 78d7 2b3e
0.2907642 0.15354545 0.18476772 0.16781414
