checkpoint.pth (torch_old, 28333 bytes, 6 tensors)

fc1.weight f4 [64, 37]
000000 a4 39 d4 3d 09 35 40 3e fb 87 dd bd 04 59 ec bd
       0.103625566 0.18770231 -0.10816952 -0.11540416
000010 a8 5a 50 3d 32 69 7d be f7 8d ca 3c f8 1c ed bd
       0.050867707 -0.2474716 0.024725897 -0.11577791
000020 7d 6c 7f 3d 8a c1 38 bd 9f 6a ce 3c 5f 1b d8 bd
       0.06235932 -0.04510645 0.025197325 -0.105520956
000030 fd d5 02 3d ca b0 1d be af 20 c0 be e9 4e 47 3e
       0.031942356 -0.15399471 -0.37524936 0.19463696
000040 6d 84 fe 3d 10 a2 01 3e cc a0 c5 bd 3b 0f 24 be
       0.12427602 0.12659478 -0.0964981 -0.16021435
000050 8c 39 a7 bd 6f e0 52 bc ab c2 f5 bd 40 cd 4c be
       -0.08165273 -0.012870892 -0.120000206 -0.20000172
000060 cf 4d eb bd 39 60 e3 bc 65 24 d0 bd 3f f1 fb bd
       -0.1148945 -0.027755843 -0.10163192 -0.123018734
000070 d5 7e 58 3b a6 fa 06 3d df 5c 22 bb ac e5 51 bd
       0.0033034582 0.03295388 -0.0024774594 -0.051244423
000080 63 16 b3 bc 7a 0e f5 bc 8c fd fd bc d3 1f 0f be
       -0.02186126 -0.02991413 -0.03100469 -0.13976984
000090 98 91 c5 bb 1f 4b aa 3e 06 af bb be 9e c0 8e be
       -0.006029319 0.33260438 -0.3665697 -0.2788133
0000a0 eb 77 be be 4d 06 eb bf f3 5e ee 3d e0 33 1d 3e
       -0.37200865 -1.8361298 0.11639204 0.1535182
0000b0 e0 66 04 3e ef cb 0c 3e 52 d3 31 bc 7e 97 64 bd
       0.12929869 0.1374967 -0.010853605 -0.055808537
0000c0 fc 03 65 3c 82 41 e1 bc 24 b7 a9 3c 3d 32 21 3d
       0.013978001 -0.027497057 0.020717211 0.03935455
0000d0 65 85 8d bd fe 89 2f bd 24 79 22 bd b5 ce 30 bc
       -0.069102086 -0.04285621 -0.03966631 -0.01079147
0000e0 41 46 fe 3c 86 c5 0c be 1a fa b6 bd f7 f3 c2 bd
       0.031039359 -0.13747224 -0.08934422 -0.09519189
0000f0 b9 0b 67 bd 39 20 26 3c 2d d8 26 b9 4f e8 1e 3d
       -0.056407664 0.010139518 -0.00015911525 0.038795765
000100 3d 69 6c 3d 91 95 fc 3d 66 21 13 3e 6c 82 e2 3d
       0.05771755 0.12333215 0.14368209 0.11060032
000110 05 8d e5 3d b4 ff e7 3d 71 e2 20 3e d6 31 16 3d
       0.11208538 0.113280684 0.1571138 0.03666862
000120 48 5d c9 3b eb 1c 3b 3b 0f 7f 26 be 4b f8 84 3d
       0.006145153 0.0028551172 -0.16259407 0.064926706
000130 02 fa 12 be 12 89 4c be 45 52 6d 3d b6 54 91 3e
       -0.14353183 -0.19974163 0.057939786 0.28384942
000140 8d c6 f4 3c 22 b7 20 bd 2c d1 00 be eb 4c 19 be
       0.029879833 -0.03923715 -0.12579793 -0.14970748
000150 72 9c d5 3d 16 17 1b 3d 40 32 8b 3d ae bc 5c bb
       0.1043023 0.037863813 0.06796694 -0.0033681798
000160 33 74 9d 3d 02 18 94 3e 62 83 6b be 9b c7 11 3e
       0.07688179 0.28924567 -0.22999337 0.142363
000170 72 54 81 3d 7c 21 47 bf 0a b1 00 be 70 de 9b 3d
       0.06314935 -0.7778547 -0.12567535 0.07610786
000180 95 65 81 bb 47 e0 5f be 22 f7 64 3d 4d ad dc bc
       -0.003948877 -0.21862899 0.055899747 -0.026938105
000190 a8 c5 c7 bd b7 39 25 be 48 64 50 be b5 e0 5e be
       -0.09754497 -0.16135298 -0.20350754 -0.21765406
0001a0 a7 bd 46 be 53 fe bb bd 52 7a 0a 3d 38 7c fd 3d
       -0.19408284 -0.09179368 0.03380806 0.123772085
0001b0 59 c0 71 3e 32 80 d3 bd 5e 88 a0 3c a3 95 ae bd
       0.23608531 -0.10327186 0.019596275 -0.08524635
0001c0 ec 7a 2d be 40 1f f0 bd 43 04 7e bd a1 ef 1e be
       -0.16941422 -0.117247105 -0.062015783 -0.15521099
0001d0 39 c9 a1 be 40 58 2d be 91 49 85 be 59 35 f2 3d
       -0.31598833 -0.16928196 -0.2603269 0.118265815
0001e0 c7 b4 5c 3e d0 d2 76 be a6 5d 6d be 81 7f b1 be
       0.21553336 -0.24103856 -0.23180255 -0.3466759
0001f0 67 67 08 be 8d 94 24 be ce 3c 1a bd d2 c6 1d be
       -0.13320695 -0.16072293 -0.037655644 -0.15407875
000200 73 50 eb bd 95 fb 6a be 8a 94 0d be 5b 9b 92 3c
       -0.11489954 -0.22947533 -0.13826194 0.017896345
000210 1a 3a 38 3d 28 16 d0 be 1d 31 99 be 31 8b 1e 3e
       0.044977285 -0.40641904 -0.29920283 0.15482785
000220 57 5c 5c 3c ad 61 25 be e3 a5 49 be 0b 29 24 be
       0.01344975 -0.16150542 -0.19692187 -0.16031282
000230 c4 cd 83 be 28 76 ed 3d 6e 5b 83 3e e9 80 32 be
       -0.25742924 0.11594802 0.25655693 -0.17431988
000240 5c 1f ee 3d 31 11 9f 3e 1a d7 aa 3d 2c c6 99 3d
       0.11627075 0.31067804 0.083418086 0.075085014
000250 ba 80 f3 3d 5d e4 63 bd a9 33 7c 3c 55 00 c1 3d
       0.11889787 -0.055637706 0.015393176 0.094238915
000260 df d2 33 3d 86 20 8a 3e db 64 61 3d 31 3b 82 bd
       0.043902274 0.26977938 0.055027824 -0.06358946
000270 be 4c 70 bd ee 55 eb be 89 ee cd bd a1 d0 1c 3d
       -0.058666937 -0.45963997 -0.100552626 0.0382849
000280 2e ea f1 bd f7 ea 0e be b3 8f 17 be d1 81 03 3d
       -0.11812244 -0.1395682 -0.1480091 0.032106224
000290 94 04 a3 bd f2 c8 bc bd 65 bd 84 bb db f9 32 3d
       -0.079598576 -0.09218015 -0.004050898 0.043695312
0002a0 0a fa 56 bd a5 e0 a7 bd ea de 1b be ad 91 6e 3d
       -0.05248455 -0.081971444 -0.15221754 0.058244396
0002b0 f8 bc 83 3e b5 9b e0 be b5 35 64 3e 6c 87 04 3e
       0.2573011 -0.43868795 0.22286113 0.12942284
0002c0 66 df e2 3d 68 bf 9f bd 3b 81 b4 be d2 5b 81 bb
       0.11077766 -0.0780018 -0.35254845 -0.0039477134
0002d0 87 f1 e2 3c 04 a9 8a 3d 7f b1 2d be 82 02 69 3d
       0.02770306 0.067705184 -0.1696224 0.056887157
0002e0 f9 6d bc 3c d9 79 88 be f5 67 97 bd 30 60 cb 3d
       0.023001658 -0.26655462 -0.07392875 0.09930456
0002f0 ef c8 4c 3d 33 87 83 bd f8 50 50 bd 6b 0e 75 bd
       0.049996313 -0.064222716 -0.050858468 -0.059828203
000300 9c ef 81 3e 75 b7 78 3e 57 96 28 3d 2f 54 56 bd
       0.2537812 0.24288733 0.041159 -0.052326377
000310 8f 27 a8 be f9 04 9d bd 80 39 04 3e 02 26 97 be
       -0.3284268 -0.07666964 0.1291256 -0.29521185
000320 b9 9a 17 bc e7 0a cb 3d b8 b9 df bd fc 4b 55 3e
       -0.009253197 0.09914189 -0.10924095 0.20829767
000330 7c 86 f3 bd ad 97 07 3c df 2e 34 bc e2 28 bb be
       -0.11890885 0.008275908 -0.010997503 -0.3655463
000340 4f e9 da bd 2e 72 cc 3d 7f fa 27 3e d1 19 1d 3e
       -0.10689031 0.099827155 0.1640415 0.1534188
000350 21 11 a1 be c5 ae fb bd a5 1b 0a 3e 57 aa f7 3d
       -0.3145838 -0.12289194 0.13487108 0.120930366
000360 8d 42 7e bd 18 c0 c4 be 12 20 d7 bd 02 f8 2d be
       -0.062075187 -0.38427806 -0.10504164 -0.16989139
000370 b8 70 15 bd ce 19 dd 3b 3d fd 86 3d 00 07 70 3d
       -0.03648445 0.006747461 0.0659127 0.058600426
000380 7f 99 58 be a0 be a4 be f9 9e 92 bc 55 4e cf bd
       -0.21152304 -0.32176685 -0.01789807 -0.101223625
000390 8d 8a 05 be 7a ce 3d 3d 03 82 91 bd 3d b6 45 3d
       -0.13041134 0.04633949 -0.07104876 0.0482695
0003a0 2b 1b 2f 3e b3 d6 bb bc 9c 57 70 3b 9a 2d 96 bd
       0.17100208 -0.022929525 0.0036673313 -0.073329166
0003b0 cd 0c 3d 3d 51 f1 c5 bd df 6b 42 be b0 bb 15 3d
       0.046154786 -0.09665168 -0.18986462 0.036555946
0003c0 51 8c 2d be 82 fa 00 be e3 19 bd 3d f1 b1 98 3d
       -0.16948058 -0.12595561 0.09233453 0.07455815
0003d0 42 17 d4 bd 9f 18 d2 3d b4 8b de 3d c2 89 e5 3d
       -0.103559986 0.10258602 0.1086649 0.11207916
0003e0 e1 bd e0 3b d9 7b 97 3b bb c6 24 3d c5 52 b1 3e
       0.006858573 0.004622918 0.040228587 0.3463346
0003f0 4f df e7 3d 04 1c eb bd e5 46 cd be 6a b9 b4 3d
       0.113218896 -0.11479953 -0.4009315 0.088244274

fc1.bias f4 [64]
000000 b9 00 26 3d de 14 fe bd ad ae 5c bd 78 0c 2e bd
       0.040528033 -0.12406324 -0.05387752 -0.04249236
000010 af 15 97 bd 52 97 a9 bd 95 53 73 be b5 fc b4 3d
       -0.07377183 -0.08280815 -0.23762353 0.088372625
000020 3d 92 fb bc 90 d7 37 be ec 24 75 3d f7 f7 2d be
       -0.03070938 -0.17953324 0.059849665 -0.16989122
000030 1b f0 82 bd 40 1a bb bd 54 c0 31 ba 58 da 2f be
       -0.06393453 -0.09135866 -0.0006780673 -0.17173135
000040 3f 90 6f 3d 30 53 07 be 44 ea 84 3c f0 db c4 bd
       0.058487173 -0.13215327 0.016224988 -0.09612262
000050 84 95 81 bd ae 9f 31 be 64 8e ce 3d 0d a1 0b 3d
       -0.06327346 -0.17346069 0.100857526 0.034089137
000060 c4 d7 99 bd f1 ea d1 3d f2 29 00 3e 56 4a 26 3e
       -0.07511857 0.1024989 0.12516001 0.16239294
000070 22 bd 14 be c5 3e 5e 3c 50 1e b0 3d 93 4d 02 3d
       -0.14525273 0.01356477 0.08599532 0.03181226
000080 f6 43 07 be 0e bc b6 bd a9 aa 98 3d 0a a9 b6 bc
       -0.13209519 -0.08922587 0.07454426 -0.022297401
000090 c1 97 00 be 8a c2 67 bd b9 96 14 be 7a 11 1d 3d
       -0.1255789 -0.05658201 -0.14510621 0.038346745
0000a0 e5 50 05 3d 98 45 a6 3d 69 2e 54 be e5 2a 37 be
       0.03254785 0.08118743 -0.20720829 -0.17887457
0000b0 4e 1a 25 be fd 3d d3 3a c8 d4 8f bd 08 83 3d be
       -0.16123316 0.0016116496 -0.07023007 -0.18507016
0000c0 d4 e4 81 3d 12 63 35 be 32 35 7b 3d ba 18 10 bd
       0.063424736 -0.17713574 0.061330028 -0.03517983
0000d0 fb 7a 4c 3e b2 1f a5 bc bc 9e 95 3b 36 6f 1b be
       0.19968788 -0.020156715 0.0045660418 -0.15179142
0000e0 d6 9d 20 be c9 ee 2f 3e e4 90 dd bd 1f f6 ca 3b
       -0.1568521 0.17180933 -0.10818651 0.0061938907
0000f0 59 0c 00 be 05 0c 4a be 55 1a 0f be a0 7b 29 3d
       -0.1250471 -0.19731148 -0.13974889 0.041377664

fc2.weight f4 [64, 64]
000000 19 63 3d 3d 55 6c c6 bd 74 98 18 3e 8d 67 3e be
       0.046237085 -0.096886314 0.14901906 -0.18594189
000010 fe a9 a7 be bd 18 47 3e af 3e c5 bd cd 44 18 3e
       -0.3274688 0.1944303 -0.096310966 0.14869995
000020 7b 03 08 3f c8 72 8f 3e 9c 38 80 bd 2a d0 ea 3d
       0.5313031 0.2801726 -0.062607974 0.114654854
000030 63 bc d4 3d 90 d2 17 3f 99 b7 1c be 1c d0 76 bd
       0.103874944 0.5930567 -0.15304412 -0.060257062
000040 3c 32 40 bd d9 91 7e be b4 9e b4 bd df 9d 9d 3d
       -0.046922907 -0.24860324 -0.08819333 0.07696127
000050 8a 46 ed 3b 50 34 3e 3c 4d 7c 9a 3d 54 2b 0a be
       0.007241075 0.011609152 0.0754324 -0.13493091
000060 22 ca 31 3d 26 06 d0 3e 31 c2 f1 bd df 45 0a 3e
       0.04340566 0.4062969 -0.11804617 0.13503216
000070 b4 f4 8d bd 69 3d b2 be a6 ff c3 be d3 b8 d0 3d
       -0.06931439 -0.34812477 -0.38280982 0.101915024
000080 43 96 2d 3d 8a d3 3a 3d 31 3e 18 bd 34 6f a1 be
       0.04237963 0.045611896 -0.037168685 -0.31530154
000090 6a af eb 3d 42 9e 94 3e 25 d1 1a be fc 3b 2e 3d
       0.11508067 0.2902699 -0.15118845 0.042537674
0000a0 c4 d9 01 3e 7f 36 70 bd 0f 85 da 3d 15 e2 98 3e
       0.12680727 -0.05864572 0.1066991 0.29859987
0000b0 9e bb 21 be a6 0c cf 3e c8 e5 35 be 37 40 1d 3e
       -0.15794227 0.40439337 -0.17763436 0.15356527
0000c0 8b 98 a1 bc ce f2 ab 3b 28 7a 98 bd 81 55 4e be
       -0.019726058 0.0052474504 -0.074451745 -0.20149805
0000d0 6f d3 9a 3c a9 e7 a2 3e 20 e4 53 be de 62 e5 3d
       0.018899648 0.31817368 -0.20692492 0.11200498
0000e0 bc 90 d7 bc 39 ff e0 bd 0f d9 04 be d2 e8 de 3d
       -0.026314132 -0.1098618 -0.12973426 0.10884251
0000f0 83 72 1a 3e a6 03 3d be ab 45 fc 3c 67 45 96 3e
       0.15082745 -0.18458423 0.030794939 0.29349825
000100 0d b9 98 bd 71 55 26 3f ec a4 3d bc 07 0b ce bd
       -0.07457171 0.64974123 -0.011574965 -0.10060697
000110 42 b1 8c bc f9 94 8b be 1c a8 49 3d c4 e3 4a 3d
       -0.017174367 -0.27262095 0.049232587 0.04953362
000120 8a 33 ad 3c 7f c7 3b 3e d4 f5 f0 bd 8b 12 c5 bd
       0.02114274 0.1833782 -0.11765638 -0.096226774
000130 cd 32 5b bd 28 7b b4 be 8a 89 62 be 3a c8 5f 3e
       -0.053515244 -0.3525021 -0.2212278 0.21853724
000140 d7 9a 04 3e 1b a0 29 3e 35 dd 35 3d 17 5a c9 3d
       0.12949692 0.16564982 0.044400413 0.098316364
000150 c4 ec 82 bd 25 5c a4 3d 49 d5 88 3d dc 7b d1 bc
       -0.06392816 0.08025388 0.06681306 -0.025571756
000160 6d 30 bd bc cd 74 86 be 6d 88 19 be f1 b5 e6 bd
       -0.02309438 -0.26260987 -0.14993449 -0.11265171
000170 85 80 a8 bb 4c b9 67 3d 4d fe 0d 3d c2 ea 25 3e
       -0.005142274 0.056573197 0.03466635 0.16202834
000180 6b f2 16 3e c2 12 1c 3e 4b b1 98 be 52 8a 43 3d
       0.14740913 0.1524153 -0.29822764 0.047739334
000190 16 15 99 bd 19 fd 9f be a5 79 04 3c 72 67 48 3d
       -0.07474725 -0.31247786 0.008085643 0.04892678
0001a0 cf 4f d6 3d b3 08 e7 bd 8e 5f c6 be 7d c8 32 be
       0.10464441 -0.11280956 -0.38744777 -0.17459293
0001b0 c0 2f c7 bd 96 b3 11 be 8a e4 82 be 05 c6 a5 3d
       -0.097259045 -0.14228663 -0.25564986 0.0809441
0001c0 a5 00 fe 3d d3 a2 80 be db af 0d bf 89 99 3d 3d
       0.12402467 -0.25124225 -0.5534646 0.046289
0001d0 fd b3 82 bd fb fe 33 3d c5 98 fa bd 3e d5 ac 3d
       -0.06381986 0.04394434 -0.1223617 0.0843911
0001e0 e7 86 3a 3e 0e 4f 2f 3e 6c 9c 07 be 67 2e 6b 3e
       0.18215524 0.1712 -0.13243264 0.2296692
0001f0 d7 3d ce bd e3 3c 48 bd 6e f9 17 be 26 66 af 3e
       -0.10070389 -0.04888619 -0.14841244 0.3425762
000200 30 0e cf 3b d2 1e 08 bd f0 c4 72 be 5f 7a b7 3d
       0.00631883 -0.033232518 -0.23707938 0.08958887
000210 dc f3 2e 3d ee 1c b7 be 7b 3f f8 bb 15 bd 60 3d
       0.04271303 -0.3576426 -0.007575927 0.054867823
000220 de fd 83 be 10 81 69 be 49 53 2f be c1 05 89 3d
       -0.25779623 -0.2280314 -0.17121615 0.066905506
000230 56 5e ab bd 12 d1 b9 bd 25 84 11 bf b3 05 e2 bd
       -0.083676025 -0.0907308 -0.5684226 -0.11036243
000240 59 b2 87 be aa ca 64 be 8b c2 fb 3d fa f6 21 3c
       -0.26503256 -0.22342935 0.122929655 0.009885544
000250 69 46 bd 3e 3c ce d3 3c e3 bf 14 3e 90 08 9a be
       0.3696778 0.025855176 0.14526324 -0.30084658
000260 fc 6a 39 be 1b 2c 46 3e 19 61 39 be cd 1b 96 be
       -0.18107218 0.19352762 -0.18103446 -0.29318085
000270 0d 26 96 bd 86 95 67 3e d9 2c 77 3e 6c 66 18 3e
       -0.07331476 0.22615632 0.24138202 0.14882821
000280 ea 94 48 be b1 60 45 3d c7 43 f1 3c 71 74 ce be
       -0.19588056 0.048187915 0.029451264 -0.40323213
000290 44 17 b4 3e fb 21 0f 3e e0 6c 2f be 8a f6 e6 be
       0.35174 0.13977806 -0.17131376 -0.4510997
0002a0 ba 68 34 3e 56 34 82 3d a8 0c 3f bd 46 30 17 3e
       0.17618075 0.063576385 -0.04664293 0.14764509
0002b0 12 56 27 bd 0a e6 9a bc e3 0b a0 39 ce 30 2c 3e
       -0.040853567 -0.01890852 0.00030526434 0.16815493
0002c0 d7 fe 9d be ce 33 a8 be f1 8b 19 be 24 13 0c 3e
       -0.3085849 -0.32852024 -0.1499479 0.13679177
0002d0 9e 77 87 3c 07 ad 41 3d 69 66 ae 3d 46 b0 dd bd
       0.01653653 0.047284152 0.08515627 -0.10824637
0002e0 2f 19 b2 3c 23 db 00 bc 8e af e0 bd d9 13 df bb
       0.021740524 -0.007864746 -0.109709844 -0.006807786
0002f0 39 55 b8 3e ea 11 0d be cb e7 af be 9d 7e 99 be
       0.3600252 -0.13776365 -0.34356532 -0.2997941
000300 8e 47 7f be e3 4e fe 3e 96 d3 1a 3e 26 de c4 bd
       -0.2492964 0.4966956 0.15119776 -0.09612684
000310 ec 43 f7 3d bc 6c 3f be e3 c5 89 be 71 83 0c be
       0.12073502 -0.18693823 -0.26908788 -0.13722016
000320 cf 23 be 3e b7 3d 23 ba 7b ee e5 bd 25 1d 00 3e
       0.37136695 -0.0006227153 -0.11227127 0.12511118
000330 65 0a 11 3d e9 12 88 bd cf 66 dc 3d 9e 1d e2 bd
       0.035410304 -0.06644232 0.10761797 -0.11040805
000340 b0 7d 5f be 68 99 a9 3d f8 89 f4 bc 5c d1 c9 3d
       -0.2182529 0.08281213 -0.029850945 0.09854385
000350 d1 2b 05 be 49 7e 2c bd c2 66 b2 3d 80 d0 a0 bd
       -0.13004996 -0.042112622 0.08711006 -0.07852268
000360 88 95 06 3e ea ad 9c 3d 63 bc 10 bd 1c 0e b2 bd
       0.13142979 0.07650359 -0.03533591 -0.086940974
000370 98 cb 05 be a6 36 b9 be d6 39 94 3d b2 b8 04 bd
       -0.13065946 -0.36174506 0.07237594 -0.0324027
000380 a8 1f 1d be 44 df 8a bd 0d c6 ce 3d 2a c1 30 bd
       -0.15344107 -0.06780866 0.10096369 -0.043152966
000390 f8 12 3e 3e 38 08 f3 3e f3 b0 dd bd f5 a0 d7 3d
       0.18561924 0.47467208 -0.10824766 0.10528747
0003a0 ab 1f f5 3d 6a a2 24 3c cc 59 75 3e 7c d1 c6 3d
       0.11968931 0.010048488 0.23960036 0.09707925
0003b0 80 ca 61 bd dc 28 9e 3d ee 6d 34 be 0c db 55 bc
       -0.05512476 0.07722637 -0.1762006 -0.013052713
0003c0 d7 8d 0c 3e d0 b4 15 be f7 51 27 3e a4 bb 2b be
       0.13725983 -0.14619756 0.16339861 -0.16770798
0003d0 17 f8 83 3d 07 04 a9 3d 35 7a d9 3d 01 85 70 be
       0.06443804 0.08252721 0.10619012 -0.23488237
0003e0 a1 8d 82 bd a4 3f 44 3d 76 e4 a1 3d 98 92 a5 bd
       -0.0637467 0.047912255 0.079049036 -0.08084601
0003f0 f8 23 67 3d a9 25 12 be 4b 1b 4a bd 8d 76 aa 3e
       0.056430787 -0.14272179 -0.049342435 0.33293572

fc2.bias f4 [64]
000000 fc bd 15 be 86 49 59 3d 33 e6 0e be a3 30 4e be
       -0.14623255 0.053048633 -0.13955002 -0.20135741
000010 51 aa a0 bc 4e 2d 52 bd 24 b4 bf bd 0d b6 a7 3e
       -0.019612463 -0.051312737 -0.09360531 0.3275608
000020 05 c1 6d 3c e6 8a 4b 3e c5 e4 42 bd c0 f8 95 3d
       0.0145113515 0.19877204 -0.047581453 0.07322836
000030 f6 7e 88 3e 7f d6 8a 3d f2 5b 1d be fe 09 0a 3e
       0.26659364 0.06779193 -0.15367106 0.13480374
000040 eb a1 e3 3d 78 cc 11 be d4 d6 f2 bd 77 64 6d bd
       0.11114868 -0.14238155 -0.118573815 -0.05795714
000050 be e2 2f 3e dc 98 ad 3d 94 e7 27 3d 23 46 54 bd
       0.17176339 0.08476421 0.040992334 -0.0518247
000060 fc b5 1f 3e e9 c5 6c be eb 77 87 bd c5 37 c4 3d
       0.15596765 -0.23122372 -0.066146694 0.0958095
000070 bc cb 89 3e 3e 99 10 3d 52 99 d7 3e de e3 59 bd
       0.2691325 0.035302393 0.42109162 -0.053195827
000080 1e 94 96 3d 45 d6 44 3e ca 3d 62 bd 66 ce f1 3c
       0.0735247 0.19222362 -0.055234708 0.029517364
000090 af f9 0b 3e 3b 20 4d bd 6b 52 70 3d c5 10 33 be
       0.13669465 -0.050079565 0.05867235 -0.17486866
0000a0 97 d2 b1 3d 6a 10 69 bd d7 a5 82 3e 37 0b f2 ba
       0.08682745 -0.05690042 0.2551715 -0.0018466477
0000b0 71 97 a2 3c 00 9a 8d bd d3 0c 93 3d c8 85 fb bb
       0.019847604 -0.06914139 0.071801804 -0.00767586
0000c0 1f fe 19 3d 78 e8 1e be ed 62 4d 3e c8 6e a3 3e
       0.037595864 -0.15518367 0.20057268 0.31920457
0000d0 d8 8a f6 bd eb c9 88 bb 95 16 5d 3d 86 c8 aa 3e
       -0.12038201 -0.004174461 0.053976614 0.33356112
0000e0 c3 58 a6 bd 18 3f 36 3e 42 8d cb bc b8 de 94 3e
       -0.08122399 0.17797506 -0.02484763 0.2907617
0000f0 e9 7a d2 bd aa ff 85 3e 34 4e 81 3d 27 35 14 be
       -0.102773495 0.2617162 0.06313744 -0.14473401

fc3.weight f4 [4, 64]
000000 18 f1 1d be 17 e3 0b 3e 66 8f 19 bf f9 2d 3d be
       -0.15424001 0.13660847 -0.59984434 -0.18474568
000010 53 28 37 bc 21 35 b8 bd 8e 49 d8 3e 61 07 a7 3e
       -0.011179048 -0.089945085 0.42243618 0.32622817
000020 36 6e 1a 3d f0 af e6 3d 58 77 3b be c3 bc 31 be
       0.03770276 0.11264026 -0.18307245 -0.17357163
000030 5a 66 11 3d 9e 95 13 bc 2c 0f 9b bd 37 83 4c 3e
       0.035498 -0.0090078395 -0.07571253 0.1997193
000040 d9 dd 88 bc 1f 2a 49 be 8f d7 74 3e e3 d2 34 be
       -0.016707348 -0.19644974 0.23910354 -0.17658572
000050 19 a1 c0 3d 36 f4 01 3f f5 e2 85 3b f0 90 6f 3e
       0.09405727 0.5076326 0.0040858933 0.23395133
000060 f2 91 11 3e 72 e9 f8 bc b6 44 d1 be f3 04 31 bd
       0.1421583 -0.030384753 -0.40872735 -0.04321761
000070 62 81 45 3e ab 0d 22 bf 94 23 56 3e ac 3f bd 3d
       0.19287637 -0.63302106 0.2091201 0.0924066
000080 b2 58 79 3e d8 1c 8e 3d d5 c2 8c be 09 1a 03 3f
       0.24350241 0.06939095 -0.27492395 0.512116
000090 b7 bf 1b 3e 6d bc a9 3e 91 59 aa 3d bb f4 7c 3e
       0.15209852 0.3315157 0.08317865 0.24702732
0000a0 0b 39 a7 3d 59 11 ac be e0 1d 12 3e fc 38 18 3c
       0.08165177 -0.33606985 0.14269209 0.00929093
0000b0 85 cd 0b be 55 bd 99 be c9 f2 06 bc 87 22 9e be
       -0.13652618 -0.3002726 -0.008236595 -0.30885717
0000c0 f1 51 78 3c 92 48 68 bc 6a 42 a0 3d 59 3b 70 3e
       0.015156255 -0.014177458 0.078251675 0.2346014
0000d0 5f 77 a9 be 6e 02 75 be 77 73 16 be 10 7b 4e 3e
       -0.33098885 -0.23926708 -0.14692484 0.20164132
0000e0 be 46 82 be 08 6d 6b 3d b0 17 9d 3e 84 60 61 3e
       -0.25444597 0.057477027 0.30682135 0.22009474
0000f0 a9 e3 d4 bd c3 05 db 3d bc 18 8d 3e a2 88 33 be
       -0.10394985 0.10694458 0.27557933 -0.1753259
000100 11 95 c9 bd 7c 76 3a 3d f6 e8 83 3e c6 02 28 be
       -0.09842885 0.04552315 0.25763673 -0.16407308
000110 0d 76 33 be f2 f5 45 be 5b ab ea 3e 4e 77 66 3e
       -0.17525502 -0.19332102 0.4583386 0.22506449
000120 a1 fe 29 be 4f 90 8d 3e a9 31 f3 bd 7c bf 7b bd
       -0.1660104 0.2764916 -0.11874706 -0.06146191
000130 13 bb a8 3d e7 6b 88 bd a7 44 59 3d 13 ce 11 3e
       0.082388066 -0.06661206 0.053043988 0.14238767
000140 eb 81 04 3e e3 61 a1 be a8 13 16 3d 15 31 94 bd
       0.12940185 -0.31519994 0.03663984 -0.07235924
000150 cb be 28 3e 3e 64 da 3e dc bb b0 bd d4 85 48 be
       0.16479032 0.42654604 -0.08629581 -0.19582301
000160 82 85 22 3e ee 17 32 bd aa 52 47 be 59 eb 3e 3e
       0.15871242 -0.043479852 -0.19465128 0.18644466
000170 45 6b 72 3e c8 a5 da 3d 7b 7f 63 3e 46 32 e9 bd
       0.23673733 0.106761515 0.22216599 -0.11386542
000180 b4 7c a1 3e ad 7c 5f 3e 98 15 0e 3e dc be 14 3e
       0.31540453 0.21824904 0.13875425 0.14525932
000190 54 cb 10 3e c4 7b ad 3e d9 4c e9 3d 4d 60 b6 be
       0.14140064 0.33883488 0.11391611 -0.35620347
0001a0 99 ab f6 bc 01 d2 7b be 1e 74 01 3e fe 5f bf be
       -0.030111121 -0.24591829 0.12641951 -0.37377924
0001b0 04 cb 5c be 56 d4 c1 bd 42 a9 07 bd ee f8 ad be
       -0.2156182 -0.09464328 -0.0331204 -0.3397898
0001c0 15 05 ca 3e 09 44 78 be dc 75 32 3e ab 3f 36 3c
       0.39457002 -0.24244703 0.17427772 0.011123578
0001d0 c0 e4 88 be 6e 11 0f 3d d5 4c de 3d 6f ef 15 3e
       -0.26737022 0.03492873 0.10854498 0.14642118
0001e0 3b 12 d0 3c 1d f1 36 3d d6 cb d0 3e ed 3c 8a 3e
       0.025399318 0.044663537 0.40780514 0.26999608
0001f0 9b b6 77 be 40 1b 80 3e f1 1a 33 3e a8 27 01 be
       -0.24190752 0.2502079 0.17490746 -0.12612784
000200 b4 25 0a bf ec 8f 31 bc d2 78 f2 3c 7e b8 8d bc
       -0.5396378 -0.010837536 0.029598627 -0.017299887
000210 8e 12 97 3d 9b 89 30 be 6e fd 77 3e bb 2f 83 3d
       0.07376586 -0.17239992 0.2421777 0.06405588
000220 ba 46 49 be 4b c9 ae 3e 45 06 04 3e bb 0e 89 be
       -0.19655886 0.3413795 0.12893017 -0.2676905
000230 91 90 98 3e 24 c1 4b 3e 69 ee e2 bd f7 9b 9d 3e
       0.29797795 0.19897896 -0.110806294 0.30783054
000240 24 81 c1 bc e7 fb 4b be 0b fd 8d be 44 f5 e1 bd
       -0.02362115 -0.19920312 -0.2773212 -0.11033109
000250 8e 80 3f 3d c8 22 c8 3e 2a c9 b9 be f6 0e 9d be
       0.04675346 0.39089036 -0.36286288 -0.30675477
000260 c0 26 27 3e d8 09 a1 bd 5d e4 7e 3e 20 26 f8 3c
       0.16323376 -0.07863206 0.24891801 0.030291617
000270 b2 4d 82 3e 60 14 f3 be 05 18 38 3e 83 95 68 be
       0.25449902 -0.47476482 0.17977913 -0.22713284
000280 78 92 47 3e c5 a3 09 3e ce af 8b 3e 38 d8 af 3c
       0.19489467 0.1344138 0.27282566 0.021465406
000290 bd f6 8b 3e a5 92 39 3e 4e 07 7b 3e c5 0c 63 3e
       0.27336684 0.18122347 0.24514505 0.2217284
0002a0 26 23 05 3e 94 1d b1 be 8b 22 03 3e eb 40 48 be
       0.1300169 -0.3459288 0.12806146 -0.19556014
0002b0 3a 38 de bd 7b 4c 12 be 33 be 02 3d fb 83 a9 be
       -0.10850568 -0.14286987 0.03191967 -0.33108506
0002c0 01 43 53 be 2d e9 85 be 3d a6 69 3e b8 ea 95 3e
       -0.20631029 -0.26154462 0.22817321 0.2928064
0002d0 71 c1 2a bd b8 b5 3c bd 9b e6 84 3e 92 f6 29 3e
       -0.041688386 -0.046071738 0.25957188 0.16597965
0002e0 c4 e0 29 bd 4f a0 e8 3d 31 3e 96 3e 0d 34 5b 3e
       -0.04147412 0.113587014 0.29344323 0.21406575
0002f0 d0 ab 08 be b7 1b 5f bb 19 18 9e 3e ca 42 5f 3e
       -0.13346791 -0.003404362 0.3087776 0.21802822
000300 9c fd 43 be ea 41 ab 3e ab 18 55 be 4d e8 2a be
       -0.19139713 0.33448726 -0.20810191 -0.16690178
000310 85 fb 42 be 82 ca ff 3d d0 d0 38 3f a6 fe 88 3e
       -0.1904126 0.12489797 0.7219362 0.2675678
000320 aa c6 9f be 28 59 39 3e 67 d1 0d bd eb 8f e4 be
       -0.31206256 0.18100417 -0.03462353 -0.4464105
000330 f0 30 87 3d 9c 38 85 3d 7a 7d 19 be 3f c3 4e 3e
       0.06601131 0.06504938 -0.14989272 0.20191668
000340 05 7b 32 3e e4 9b b9 be 20 a6 a7 bc 12 c6 ce 3c
       0.1742974 -0.36251748 -0.020464957 0.025240932
000350 6e 37 43 3e 9d b7 99 3e 38 bd 8f 3e 0c 30 e8 3d
       0.19064113 0.30022898 0.2807405 0.11337289
000360 0f 7e 80 3d 94 23 47 be 66 fc 34 be 8b 78 82 3e
       0.06274044 -0.19447166 -0.17674407 0.25482592
000370 cd b3 02 3e bb 40 4f bd 25 ef 01 3e 76 bc d5 bd
       0.12763901 -0.05059884 0.12688883 -0.10436337
000380 d8 4c 90 3d f5 f9 18 3e 28 7f 88 bd a1 78 17 3e
       0.07045907 0.14939101 -0.06664878 0.1479211
000390 12 dc b0 3e eb aa 1e 3e 5f 03 cb bd f8 9b 40 be
       0.345429 0.15494888 -0.09912752 -0.18809497
0003a0 14 31 d3 3d 72 af 73 be 4d 11 1d 3e 14 ad 4c 3d
       0.10312095 -0.23797396 0.15338631 0.049969748
0003b0 a9 29 3d be 84 6d 04 3e 79 fa de 3d 61 8d c2 be
       -0.18472923 0.12932402 0.108876176 -0.3799849
0003c0 17 ae 8b 3e 1f 3a 6e 3e d9 ae 70 3e 0f 8a 27 3e
       0.27281258 0.23264359 0.23504199 0.16361259
0003d0 e1 9b 2f 3e 5d 3b dc 3d e0 0c fa bd 32 65 7d 3e
       0.17149307 0.1075351 -0.12209487 0.24745634
0003e0 12 2d a4 be f5 37 96 3e df 03 ac 3e 7a 6e 24 3d
       -0.32065636 0.29339567 0.33596703 0.04014442
0003f0 24 2a 71 be 14 1f 0f 3e 1e 17 8d 3e f1 2c 8f bd
       -0.23551232 0.13976699 0.275567 -0.06990994

fc3.bias f4 [4]
000000 e5 9d a5 3e 93 e8 30 3e 73 11 71 3e 48 10 6a 3e
       0.32347026 0.1727622 0.23541813 0.22857773
